…
I0109 14:35:15.029737  4626 upgrade_proto.cpp:69] Successfully upgraded file specified using deprecated input fields.
W0109 14:35:15.029747  4626 upgrade_proto.cpp:71] Note that future Caffe releases will only support input layers and not input fields.
I0109 14:35:15.030338  4626 net.cpp:58] Initializing net from parameters: 
name: "VGG16_SemanticSegmentation_MLP"
state {
  phase: TRAIN
}
layer {
  name: "input"
  type: "Input"
  top: "data"
  top: "pixels"
  top: "labels"
  input_param {
    shape {
      dim: 1
      dim: 3
      dim: 224
      dim: 224
    }
    shape {
      dim: 50176
      dim: 3
    }
    shape {
      dim: 50176
      dim: 1
    }
  }
}
layer {
  name: "conv1_1"
  type: "Convolution"
  bottom: "data"
  top: "conv1_1"
  param {
    lr_mult: 1
    decay_mult: 1
  }
  param {
    lr_mult: 2
    decay_mult: 0
  }
  convolution_param {
    num_output: 64
    pad: 1
    kernel_size: 3
  }
}
layer {
  name: "relu1_1"
  type: "ReLU"
  bottom: "conv1_1"
  top: "conv1_1"
}
layer {
  name: "conv1_2"
  type: "Convolution"
  bottom: "conv1_1"
  top: "conv1_2"
  param {
    lr_mult: 1
    decay_mult: 1
  }
  param {
    lr_mult: 2
    decay_mult: 0
  }
  convolution_param {
    num_output: 64
    pad: 1
    kernel_size: 3
  }
}
layer {
  name: "relu1_2"
  type: "ReLU"
  bottom: "conv1_2"
  top: "conv1_2"
}
layer {
  name: "pool1"
  type: "Pooling"
  bottom: "conv1_2"
  top: "pool1"
  pooling_param {
    pool: MAX
    kernel_size: 2
    stride: 2
  }
}
layer {
  name: "conv2_1"
  type: "Convolution"
  bottom: "pool1"
  top: "conv2_1"
  param {
    lr_mult: 1
    decay_mult: 1
  }
  param {
    lr_mult: 2
    decay_mult: 0
  }
  convolution_param {
    num_output: 128
    pad: 1
    kernel_size: 3
  }
}
layer {
  name: "relu2_1"
  type: "ReLU"
  bottom: "conv2_1"
  top: "conv2_1"
}
layer {
  name: "conv2_2"
  type: "Convolution"
  bottom: "conv2_1"
  top: "conv2_2"
  param {
    lr_mult: 1
    decay_mult: 1
  }
  param {
    lr_mult: 2
    decay_mult: 0
  }
  convolution_param {
    num_output: 128
    pad: 1
    kernel_size: 3
  }
}
layer {
  name: "relu2_2"
  type: "ReLU"
  bottom: "conv2_2"
  top: "conv2_2"
}
layer {
  name: "pool2"
  type: "Pooling"
  bottom: "conv2_2"
  top: "pool2"
  pooling_param {
    pool: MAX
    kernel_size: 2
    stride: 2
  }
}
layer {
  name: "conv3_1"
  type: "Convolution"
  bottom: "pool2"
  top: "conv3_1"
  param {
    lr_mult: 1
    decay_mult: 1
  }
  param {
    lr_mult: 2
    decay_mult: 0
  }
  convolution_param {
    num_output: 256
    pad: 1
    kernel_size: 3
  }
}
layer {
  name: "relu3_1"
  type: "ReLU"
  bottom: "conv3_1"
  top: "conv3_1"
}
layer {
  name: "conv3_2"
  type: "Convolution"
  bottom: "conv3_1"
  top: "conv3_2"
  param {
    lr_mult: 1
    decay_mult: 1
  }
  param {
    lr_mult: 2
    decay_mult: 0
  }
  convolution_param {
    num_output: 256
    pad: 1
    kernel_size: 3
  }
}
layer {
  name: "relu3_2"
  type: "ReLU"
  bottom: "conv3_2"
  top: "conv3_2"
}
layer {
  name: "conv3_3"
  type: "Convolution"
  bottom: "conv3_2"
  top: "conv3_3"
  param {
    lr_mult: 1
    decay_mult: 1
  }
  param {
    lr_mult: 2
    decay_mult: 0
  }
  convolution_param {
    num_output: 256
    pad: 1
    kernel_size: 3
  }
}
layer {
  name: "relu3_3"
  type: "ReLU"
  bottom: "conv3_3"
  top: "conv3_3"
}
layer {
  name: "pool3"
  type: "Pooling"
  bottom: "conv3_3"
  top: "pool3"
  pooling_param {
    pool: MAX
    kernel_size: 2
    stride: 2
  }
}
layer {
  name: "conv4_1"
  type: "Convolution"
  bottom: "pool3"
  top: "conv4_1"
  param {
    lr_mult: 1
    decay_mult: 1
  }
  param {
    lr_mult: 2
    decay_mult: 0
  }
  convolution_param {
    num_output: 512
    pad: 1
    kernel_size: 3
  }
}
layer {
  name: "relu4_1"
  type: "ReLU"
  bottom: "conv4_1"
  top: "conv4_1"
}
layer {
  name: "conv4_2"
  type: "Convolution"
  bottom: "conv4_1"
  top: "conv4_2"
  param {
    lr_mult: 1
    decay_mult: 1
  }
  param {
    lr_mult: 2
    decay_mult: 0
  }
  convolution_param {
    num_output: 512
    pad: 1
    kernel_size: 3
  }
}
layer {
  name: "relu4_2"
  type: "ReLU"
  bottom: "conv4_2"
  top: "conv4_2"
}
layer {
  name: "conv4_3"
  type: "Convolution"
  bottom: "conv4_2"
  top: "conv4_3"
  param {
    lr_mult: 1
    decay_mult: 1
  }
  param {
    lr_mult: 2
    decay_mult: 0
  }
  convolution_param {
    num_output: 512
    pad: 1
    kernel_size: 3
  }
}
layer {
  name: "relu4_3"
  type: "ReLU"
  bottom: "conv4_3"
  top: "conv4_3"
}
layer {
  name: "pool4"
  type: "Pooling"
  bottom: "conv4_3"
  top: "pool4"
  pooling_param {
    pool: MAX
    kernel_size: 2
    stride: 2
  }
}
layer {
  name: "conv5_1"
  type: "Convolution"
  bottom: "pool4"
  top: "conv5_1"
  param {
    lr_mult: 1
    decay_mult: 1
  }
  param {
    lr_mult: 2
    decay_mult: 0
  }
  convolution_param {
    num_output: 512
    pad: 1
    kernel_size: 3
  }
}
layer {
  name: "relu5_1"
  type: "ReLU"
  bottom: "conv5_1"
  top: "conv5_1"
}
layer {
  name: "conv5_2"
  type: "Convolution"
  bottom: "conv5_1"
  top: "conv5_2"
  param {
    lr_mult: 1
    decay_mult: 1
  }
  param {
    lr_mult: 2
    decay_mult: 0
  }
  convolution_param {
    num_output: 512
    pad: 1
    kernel_size: 3
  }
}
layer {
  name: "relu5_2"
  type: "ReLU"
  bottom: "conv5_2"
  top: "conv5_2"
}
layer {
  name: "conv5_3"
  type: "Convolution"
  bottom: "conv5_2"
  top: "conv5_3"
  param {
    lr_mult: 1
    decay_mult: 1
  }
  param {
    lr_mult: 2
    decay_mult: 0
  }
  convolution_param {
    num_output: 512
    pad: 1
    kernel_size: 3
  }
}
layer {
  name: "relu5_3"
  type: "ReLU"
  bottom: "conv5_3"
  top: "conv5_3"
}
layer {
  name: "pool5"
  type: "Pooling"
  bottom: "conv5_3"
  top: "pool5"
  pooling_param {
    pool: MAX
    kernel_size: 2
    stride: 2
  }
}
layer {
  name: "fc6_conv"
  type: "Convolution"
  bottom: "pool5"
  top: "fc6_conv"
  convolution_param {
    num_output: 4096
    kernel_size: 7
  }
}
layer {
  name: "relu6"
  type: "ReLU"
  bottom: "fc6_conv"
  top: "fc6_conv"
}
layer {
  name: "drop6"
  type: "Dropout"
  bottom: "fc6_conv"
  top: "fc6_conv"
  dropout_param {
    dropout_ratio: 0.5
  }
}
layer {
  name: "fc7_conv"
  type: "Convolution"
  bottom: "fc6_conv"
  top: "fc7_conv"
  convolution_param {
    num_output: 4096
    kernel_size: 1
  }
}
layer {
  name: "relu7"
  type: "ReLU"
  bottom: "fc7_conv"
  top: "fc7_conv"
}
layer {
  name: "drop7"
  type: "Dropout"
  bottom: "fc7_conv"
  top: "fc7_conv"
  dropout_param {
    dropout_ratio: 0.5
  }
}
layer {
  name: "rand_concat"
  type: "RandBI"
  bottom: "conv1_2"
  bottom: "conv2_2"
  bottom: "conv3_3"
  bottom: "conv4_3"
  bottom: "conv5_3"
  bottom: "fc7_conv"
  bottom: "pixels"
  top: "fc5"
  rand_comp_param {
    compression_rate: 1
    compression_rate: 2
    compression_rate: 4
    compression_rate: 8
    compression_rate: 16
    compression_rate: 224
    pad: true
  }
}
layer {
  name: "fc6_new"
  type: "InnerProduct"
  bottom: "fc5"
  top: "fc6_new"
  param {
    lr_mult: 1
    decay_mult: 1
  }
  param {
    lr_mult: 2
    decay_mult: 0
  }
  inner_product_param {
    num_output: 4096
    weight_filler {
      type: "gaussian"
      std: 0.001
    }
    bias_filler {
      type: "constant"
      value: 0
    }
  }
}
layer {
  name: "relu6_new"
  type: "ReLU"
  bottom: "fc6_new"
  top: "fc6_new"
}
layer {
  name: "drop6_new"
  type: "Dropout"
  bottom: "fc6_new"
  top: "fc6_new"
  dropout_param {
    dropout_ratio: 0.5
  }
}
layer {
  name: "fc7_new"
  type: "InnerProduct"
  bottom: "fc6_new"
  top: "fc7_new"
  param {
    lr_mult: 1
    decay_mult: 1
  }
  param {
    lr_mult: 2
    decay_mult: 0
  }
  inner_product_param {
    num_output: 4096
    weight_filler {
      type: "gaussian"
      std: 0.001
    }
    bias_filler {
      type: "constant"
      value: 0
    }
  }
}
layer {
  name: "relu7_new"
  type: "ReLU"
  bottom: "fc7_new"
  top: "fc7_new"
}
layer {
  name: "drop7_new"
  type: "Dropout"
  bottom: "fc7_new"
  top: "fc7_new"
  dropout_param {
    dropout_ratio: 0.5
  }
}
layer {
  name: "cls_score_new"
  type: "InnerProduct"
  bottom: "fc7_new"
  top: "fc8_new"
  param {
    lr_mult: 1
    decay_mult: 1
  }
  param {
    lr_mult: 2
    decay_mult: 0
  }
  inner_product_param {
    num_output: 3
    weight_filler {
      type: "gaussian"
      std: 0.001
    }
    bias_filler {
      type: "constant"
      value: 0
    }
  }
}
layer {
  name: "loss_cls"
  type: "SoftmaxWithLoss"
  bottom: "fc8_new"
  bottom: "labels"
  top: "loss_cls"
}
I0109 14:35:15.030720  4626 layer_factory.hpp:77] Creating layer input
I0109 14:35:15.030742  4626 net.cpp:100] Creating Layer input
I0109 14:35:15.030755  4626 net.cpp:408] input -> data
I0109 14:35:15.030781  4626 net.cpp:408] input -> pixels
I0109 14:35:15.030798  4626 net.cpp:408] input -> labels
I0109 14:35:15.059643  4626 net.cpp:150] Setting up input
I0109 14:35:15.059674  4626 net.cpp:157] Top shape: 1 3 224 224 (150528)
I0109 14:35:15.059684  4626 net.cpp:157] Top shape: 50176 3 (150528)
I0109 14:35:15.059692  4626 net.cpp:157] Top shape: 50176 1 (50176)
I0109 14:35:15.059700  4626 net.cpp:165] Memory required for data: 1404928
I0109 14:35:15.059706  4626 layer_factory.hpp:77] Creating layer conv1_1
I0109 14:35:15.059725  4626 net.cpp:100] Creating Layer conv1_1
I0109 14:35:15.059733  4626 net.cpp:434] conv1_1 <- data
I0109 14:35:15.059744  4626 net.cpp:408] conv1_1 -> conv1_1
I0109 14:35:15.063711  4626 net.cpp:150] Setting up conv1_1
I0109 14:35:15.063738  4626 net.cpp:157] Top shape: 1 64 224 224 (3211264)
I0109 14:35:15.063745  4626 net.cpp:165] Memory required for data: 14249984
I0109 14:35:15.063765  4626 layer_factory.hpp:77] Creating layer relu1_1
I0109 14:35:15.063778  4626 net.cpp:100] Creating Layer relu1_1
I0109 14:35:15.063805  4626 net.cpp:434] relu1_1 <- conv1_1
I0109 14:35:15.063817  4626 net.cpp:395] relu1_1 -> conv1_1 (in-place)
I0109 14:35:15.063828  4626 net.cpp:150] Setting up relu1_1
I0109 14:35:15.063838  4626 net.cpp:157] Top shape: 1 64 224 224 (3211264)
I0109 14:35:15.063844  4626 net.cpp:165] Memory required for data: 27095040
I0109 14:35:15.063850  4626 layer_factory.hpp:77] Creating layer conv1_2
I0109 14:35:15.063864  4626 net.cpp:100] Creating Layer conv1_2
I0109 14:35:15.063870  4626 net.cpp:434] conv1_2 <- conv1_1
I0109 14:35:15.063880  4626 net.cpp:408] conv1_2 -> conv1_2
I0109 14:35:15.064574  4626 net.cpp:150] Setting up conv1_2
I0109 14:35:15.064589  4626 net.cpp:157] Top shape: 1 64 224 224 (3211264)
I0109 14:35:15.064595  4626 net.cpp:165] Memory required for data: 39940096
I0109 14:35:15.064608  4626 layer_factory.hpp:77] Creating layer relu1_2
I0109 14:35:15.064620  4626 net.cpp:100] Creating Layer relu1_2
I0109 14:35:15.064626  4626 net.cpp:434] relu1_2 <- conv1_2
I0109 14:35:15.064640  4626 net.cpp:395] relu1_2 -> conv1_2 (in-place)
I0109 14:35:15.064651  4626 net.cpp:150] Setting up relu1_2
I0109 14:35:15.064659  4626 net.cpp:157] Top shape: 1 64 224 224 (3211264)
I0109 14:35:15.064666  4626 net.cpp:165] Memory required for data: 52785152
I0109 14:35:15.064671  4626 layer_factory.hpp:77] Creating layer conv1_2_relu1_2_0_split
I0109 14:35:15.064682  4626 net.cpp:100] Creating Layer conv1_2_relu1_2_0_split
I0109 14:35:15.064697  4626 net.cpp:434] conv1_2_relu1_2_0_split <- conv1_2
I0109 14:35:15.064709  4626 net.cpp:408] conv1_2_relu1_2_0_split -> conv1_2_relu1_2_0_split_0
I0109 14:35:15.064721  4626 net.cpp:408] conv1_2_relu1_2_0_split -> conv1_2_relu1_2_0_split_1
I0109 14:35:15.064810  4626 net.cpp:150] Setting up conv1_2_relu1_2_0_split
I0109 14:35:15.064821  4626 net.cpp:157] Top shape: 1 64 224 224 (3211264)
I0109 14:35:15.064828  4626 net.cpp:157] Top shape: 1 64 224 224 (3211264)
I0109 14:35:15.064834  4626 net.cpp:165] Memory required for data: 78475264
I0109 14:35:15.064841  4626 layer_factory.hpp:77] Creating layer pool1
I0109 14:35:15.064852  4626 net.cpp:100] Creating Layer pool1
I0109 14:35:15.064859  4626 net.cpp:434] pool1 <- conv1_2_relu1_2_0_split_0
I0109 14:35:15.064872  4626 net.cpp:408] pool1 -> pool1
I0109 14:35:15.064958  4626 net.cpp:150] Setting up pool1
I0109 14:35:15.064968  4626 net.cpp:157] Top shape: 1 64 112 112 (802816)
I0109 14:35:15.064975  4626 net.cpp:165] Memory required for data: 81686528
I0109 14:35:15.064981  4626 layer_factory.hpp:77] Creating layer conv2_1
I0109 14:35:15.064996  4626 net.cpp:100] Creating Layer conv2_1
I0109 14:35:15.065002  4626 net.cpp:434] conv2_1 <- pool1
I0109 14:35:15.065012  4626 net.cpp:408] conv2_1 -> conv2_1
I0109 14:35:15.069010  4626 net.cpp:150] Setting up conv2_1
I0109 14:35:15.069034  4626 net.cpp:157] Top shape: 1 128 112 112 (1605632)
I0109 14:35:15.069041  4626 net.cpp:165] Memory required for data: 88109056
I0109 14:35:15.069056  4626 layer_factory.hpp:77] Creating layer relu2_1
I0109 14:35:15.069072  4626 net.cpp:100] Creating Layer relu2_1
I0109 14:35:15.069080  4626 net.cpp:434] relu2_1 <- conv2_1
I0109 14:35:15.069092  4626 net.cpp:395] relu2_1 -> conv2_1 (in-place)
I0109 14:35:15.069103  4626 net.cpp:150] Setting up relu2_1
I0109 14:35:15.069111  4626 net.cpp:157] Top shape: 1 128 112 112 (1605632)
I0109 14:35:15.069118  4626 net.cpp:165] Memory required for data: 94531584
I0109 14:35:15.069123  4626 layer_factory.hpp:77] Creating layer conv2_2
I0109 14:35:15.069135  4626 net.cpp:100] Creating Layer conv2_2
I0109 14:35:15.069141  4626 net.cpp:434] conv2_2 <- conv2_1
I0109 14:35:15.069154  4626 net.cpp:408] conv2_2 -> conv2_2
I0109 14:35:15.069877  4626 net.cpp:150] Setting up conv2_2
I0109 14:35:15.069891  4626 net.cpp:157] Top shape: 1 128 112 112 (1605632)
I0109 14:35:15.069897  4626 net.cpp:165] Memory required for data: 100954112
I0109 14:35:15.069908  4626 layer_factory.hpp:77] Creating layer relu2_2
I0109 14:35:15.069917  4626 net.cpp:100] Creating Layer relu2_2
I0109 14:35:15.069923  4626 net.cpp:434] relu2_2 <- conv2_2
I0109 14:35:15.069936  4626 net.cpp:395] relu2_2 -> conv2_2 (in-place)
I0109 14:35:15.069945  4626 net.cpp:150] Setting up relu2_2
I0109 14:35:15.069953  4626 net.cpp:157] Top shape: 1 128 112 112 (1605632)
I0109 14:35:15.069958  4626 net.cpp:165] Memory required for data: 107376640
I0109 14:35:15.069964  4626 layer_factory.hpp:77] Creating layer conv2_2_relu2_2_0_split
I0109 14:35:15.069974  4626 net.cpp:100] Creating Layer conv2_2_relu2_2_0_split
I0109 14:35:15.069980  4626 net.cpp:434] conv2_2_relu2_2_0_split <- conv2_2
I0109 14:35:15.069991  4626 net.cpp:408] conv2_2_relu2_2_0_split -> conv2_2_relu2_2_0_split_0
I0109 14:35:15.070003  4626 net.cpp:408] conv2_2_relu2_2_0_split -> conv2_2_relu2_2_0_split_1
I0109 14:35:15.070087  4626 net.cpp:150] Setting up conv2_2_relu2_2_0_split
I0109 14:35:15.070097  4626 net.cpp:157] Top shape: 1 128 112 112 (1605632)
I0109 14:35:15.070106  4626 net.cpp:157] Top shape: 1 128 112 112 (1605632)
I0109 14:35:15.070111  4626 net.cpp:165] Memory required for data: 120221696
I0109 14:35:15.070117  4626 layer_factory.hpp:77] Creating layer pool2
I0109 14:35:15.070127  4626 net.cpp:100] Creating Layer pool2
I0109 14:35:15.070133  4626 net.cpp:434] pool2 <- conv2_2_relu2_2_0_split_0
I0109 14:35:15.070145  4626 net.cpp:408] pool2 -> pool2
I0109 14:35:15.070225  4626 net.cpp:150] Setting up pool2
I0109 14:35:15.070235  4626 net.cpp:157] Top shape: 1 128 56 56 (401408)
I0109 14:35:15.070248  4626 net.cpp:165] Memory required for data: 121827328
I0109 14:35:15.070255  4626 layer_factory.hpp:77] Creating layer conv3_1
I0109 14:35:15.070268  4626 net.cpp:100] Creating Layer conv3_1
I0109 14:35:15.070276  4626 net.cpp:434] conv3_1 <- pool2
I0109 14:35:15.070284  4626 net.cpp:408] conv3_1 -> conv3_1
I0109 14:35:15.071116  4626 net.cpp:150] Setting up conv3_1
I0109 14:35:15.071130  4626 net.cpp:157] Top shape: 1 256 56 56 (802816)
I0109 14:35:15.071135  4626 net.cpp:165] Memory required for data: 125038592
I0109 14:35:15.071148  4626 layer_factory.hpp:77] Creating layer relu3_1
I0109 14:35:15.071162  4626 net.cpp:100] Creating Layer relu3_1
I0109 14:35:15.071169  4626 net.cpp:434] relu3_1 <- conv3_1
I0109 14:35:15.071178  4626 net.cpp:395] relu3_1 -> conv3_1 (in-place)
I0109 14:35:15.071187  4626 net.cpp:150] Setting up relu3_1
I0109 14:35:15.071195  4626 net.cpp:157] Top shape: 1 256 56 56 (802816)
I0109 14:35:15.071202  4626 net.cpp:165] Memory required for data: 128249856
I0109 14:35:15.071208  4626 layer_factory.hpp:77] Creating layer conv3_2
I0109 14:35:15.071224  4626 net.cpp:100] Creating Layer conv3_2
I0109 14:35:15.071230  4626 net.cpp:434] conv3_2 <- conv3_1
I0109 14:35:15.071240  4626 net.cpp:408] conv3_2 -> conv3_2
I0109 14:35:15.074177  4626 net.cpp:150] Setting up conv3_2
I0109 14:35:15.074200  4626 net.cpp:157] Top shape: 1 256 56 56 (802816)
I0109 14:35:15.074208  4626 net.cpp:165] Memory required for data: 131461120
I0109 14:35:15.074218  4626 layer_factory.hpp:77] Creating layer relu3_2
I0109 14:35:15.074235  4626 net.cpp:100] Creating Layer relu3_2
I0109 14:35:15.074244  4626 net.cpp:434] relu3_2 <- conv3_2
I0109 14:35:15.074252  4626 net.cpp:395] relu3_2 -> conv3_2 (in-place)
I0109 14:35:15.074265  4626 net.cpp:150] Setting up relu3_2
I0109 14:35:15.074275  4626 net.cpp:157] Top shape: 1 256 56 56 (802816)
I0109 14:35:15.074280  4626 net.cpp:165] Memory required for data: 134672384
I0109 14:35:15.074286  4626 layer_factory.hpp:77] Creating layer conv3_3
I0109 14:35:15.074297  4626 net.cpp:100] Creating Layer conv3_3
I0109 14:35:15.074303  4626 net.cpp:434] conv3_3 <- conv3_2
I0109 14:35:15.074316  4626 net.cpp:408] conv3_3 -> conv3_3
I0109 14:35:15.077242  4626 net.cpp:150] Setting up conv3_3
I0109 14:35:15.077270  4626 net.cpp:157] Top shape: 1 256 56 56 (802816)
I0109 14:35:15.077277  4626 net.cpp:165] Memory required for data: 137883648
I0109 14:35:15.077287  4626 layer_factory.hpp:77] Creating layer relu3_3
I0109 14:35:15.077297  4626 net.cpp:100] Creating Layer relu3_3
I0109 14:35:15.077306  4626 net.cpp:434] relu3_3 <- conv3_3
I0109 14:35:15.077313  4626 net.cpp:395] relu3_3 -> conv3_3 (in-place)
I0109 14:35:15.077324  4626 net.cpp:150] Setting up relu3_3
I0109 14:35:15.077335  4626 net.cpp:157] Top shape: 1 256 56 56 (802816)
I0109 14:35:15.077342  4626 net.cpp:165] Memory required for data: 141094912
I0109 14:35:15.077348  4626 layer_factory.hpp:77] Creating layer conv3_3_relu3_3_0_split
I0109 14:35:15.077358  4626 net.cpp:100] Creating Layer conv3_3_relu3_3_0_split
I0109 14:35:15.077363  4626 net.cpp:434] conv3_3_relu3_3_0_split <- conv3_3
I0109 14:35:15.077373  4626 net.cpp:408] conv3_3_relu3_3_0_split -> conv3_3_relu3_3_0_split_0
I0109 14:35:15.077391  4626 net.cpp:408] conv3_3_relu3_3_0_split -> conv3_3_relu3_3_0_split_1
I0109 14:35:15.077481  4626 net.cpp:150] Setting up conv3_3_relu3_3_0_split
I0109 14:35:15.077492  4626 net.cpp:157] Top shape: 1 256 56 56 (802816)
I0109 14:35:15.077500  4626 net.cpp:157] Top shape: 1 256 56 56 (802816)
I0109 14:35:15.077507  4626 net.cpp:165] Memory required for data: 147517440
I0109 14:35:15.077512  4626 layer_factory.hpp:77] Creating layer pool3
I0109 14:35:15.077522  4626 net.cpp:100] Creating Layer pool3
I0109 14:35:15.077529  4626 net.cpp:434] pool3 <- conv3_3_relu3_3_0_split_0
I0109 14:35:15.077543  4626 net.cpp:408] pool3 -> pool3
I0109 14:35:15.077625  4626 net.cpp:150] Setting up pool3
I0109 14:35:15.077633  4626 net.cpp:157] Top shape: 1 256 28 28 (200704)
I0109 14:35:15.077641  4626 net.cpp:165] Memory required for data: 148320256
I0109 14:35:15.077653  4626 layer_factory.hpp:77] Creating layer conv4_1
I0109 14:35:15.077668  4626 net.cpp:100] Creating Layer conv4_1
I0109 14:35:15.077675  4626 net.cpp:434] conv4_1 <- pool3
I0109 14:35:15.077685  4626 net.cpp:408] conv4_1 -> conv4_1
I0109 14:35:15.083911  4626 net.cpp:150] Setting up conv4_1
I0109 14:35:15.083935  4626 net.cpp:157] Top shape: 1 512 28 28 (401408)
I0109 14:35:15.083940  4626 net.cpp:165] Memory required for data: 149925888
I0109 14:35:15.083951  4626 layer_factory.hpp:77] Creating layer relu4_1
I0109 14:35:15.083961  4626 net.cpp:100] Creating Layer relu4_1
I0109 14:35:15.083968  4626 net.cpp:434] relu4_1 <- conv4_1
I0109 14:35:15.083979  4626 net.cpp:395] relu4_1 -> conv4_1 (in-place)
I0109 14:35:15.083990  4626 net.cpp:150] Setting up relu4_1
I0109 14:35:15.083998  4626 net.cpp:157] Top shape: 1 512 28 28 (401408)
I0109 14:35:15.084003  4626 net.cpp:165] Memory required for data: 151531520
I0109 14:35:15.084009  4626 layer_factory.hpp:77] Creating layer conv4_2
I0109 14:35:15.084020  4626 net.cpp:100] Creating Layer conv4_2
I0109 14:35:15.084026  4626 net.cpp:434] conv4_2 <- conv4_1
I0109 14:35:15.084039  4626 net.cpp:408] conv4_2 -> conv4_2
I0109 14:35:15.092227  4626 net.cpp:150] Setting up conv4_2
I0109 14:35:15.092252  4626 net.cpp:157] Top shape: 1 512 28 28 (401408)
I0109 14:35:15.092258  4626 net.cpp:165] Memory required for data: 153137152
I0109 14:35:15.092275  4626 layer_factory.hpp:77] Creating layer relu4_2
I0109 14:35:15.092286  4626 net.cpp:100] Creating Layer relu4_2
I0109 14:35:15.092293  4626 net.cpp:434] relu4_2 <- conv4_2
I0109 14:35:15.092301  4626 net.cpp:395] relu4_2 -> conv4_2 (in-place)
I0109 14:35:15.092311  4626 net.cpp:150] Setting up relu4_2
I0109 14:35:15.092319  4626 net.cpp:157] Top shape: 1 512 28 28 (401408)
I0109 14:35:15.092324  4626 net.cpp:165] Memory required for data: 154742784
I0109 14:35:15.092329  4626 layer_factory.hpp:77] Creating layer conv4_3
I0109 14:35:15.092344  4626 net.cpp:100] Creating Layer conv4_3
I0109 14:35:15.092350  4626 net.cpp:434] conv4_3 <- conv4_2
I0109 14:35:15.092360  4626 net.cpp:408] conv4_3 -> conv4_3
I0109 14:35:15.100281  4626 net.cpp:150] Setting up conv4_3
I0109 14:35:15.100309  4626 net.cpp:157] Top shape: 1 512 28 28 (401408)
I0109 14:35:15.100317  4626 net.cpp:165] Memory required for data: 156348416
I0109 14:35:15.100327  4626 layer_factory.hpp:77] Creating layer relu4_3
I0109 14:35:15.100337  4626 net.cpp:100] Creating Layer relu4_3
I0109 14:35:15.100343  4626 net.cpp:434] relu4_3 <- conv4_3
I0109 14:35:15.100352  4626 net.cpp:395] relu4_3 -> conv4_3 (in-place)
I0109 14:35:15.100363  4626 net.cpp:150] Setting up relu4_3
I0109 14:35:15.100369  4626 net.cpp:157] Top shape: 1 512 28 28 (401408)
I0109 14:35:15.100374  4626 net.cpp:165] Memory required for data: 157954048
I0109 14:35:15.100380  4626 layer_factory.hpp:77] Creating layer conv4_3_relu4_3_0_split
I0109 14:35:15.100394  4626 net.cpp:100] Creating Layer conv4_3_relu4_3_0_split
I0109 14:35:15.100400  4626 net.cpp:434] conv4_3_relu4_3_0_split <- conv4_3
I0109 14:35:15.100409  4626 net.cpp:408] conv4_3_relu4_3_0_split -> conv4_3_relu4_3_0_split_0
I0109 14:35:15.100420  4626 net.cpp:408] conv4_3_relu4_3_0_split -> conv4_3_relu4_3_0_split_1
I0109 14:35:15.100497  4626 net.cpp:150] Setting up conv4_3_relu4_3_0_split
I0109 14:35:15.100507  4626 net.cpp:157] Top shape: 1 512 28 28 (401408)
I0109 14:35:15.100513  4626 net.cpp:157] Top shape: 1 512 28 28 (401408)
I0109 14:35:15.100518  4626 net.cpp:165] Memory required for data: 161165312
I0109 14:35:15.100524  4626 layer_factory.hpp:77] Creating layer pool4
I0109 14:35:15.100538  4626 net.cpp:100] Creating Layer pool4
I0109 14:35:15.100543  4626 net.cpp:434] pool4 <- conv4_3_relu4_3_0_split_0
I0109 14:35:15.100551  4626 net.cpp:408] pool4 -> pool4
I0109 14:35:15.100623  4626 net.cpp:150] Setting up pool4
I0109 14:35:15.100632  4626 net.cpp:157] Top shape: 1 512 14 14 (100352)
I0109 14:35:15.100637  4626 net.cpp:165] Memory required for data: 161566720
I0109 14:35:15.100642  4626 layer_factory.hpp:77] Creating layer conv5_1
I0109 14:35:15.100666  4626 net.cpp:100] Creating Layer conv5_1
I0109 14:35:15.100673  4626 net.cpp:434] conv5_1 <- pool4
I0109 14:35:15.100683  4626 net.cpp:408] conv5_1 -> conv5_1
I0109 14:35:15.108445  4626 net.cpp:150] Setting up conv5_1
I0109 14:35:15.108471  4626 net.cpp:157] Top shape: 1 512 14 14 (100352)
I0109 14:35:15.108477  4626 net.cpp:165] Memory required for data: 161968128
I0109 14:35:15.108486  4626 layer_factory.hpp:77] Creating layer relu5_1
I0109 14:35:15.108496  4626 net.cpp:100] Creating Layer relu5_1
I0109 14:35:15.108502  4626 net.cpp:434] relu5_1 <- conv5_1
I0109 14:35:15.108513  4626 net.cpp:395] relu5_1 -> conv5_1 (in-place)
I0109 14:35:15.108523  4626 net.cpp:150] Setting up relu5_1
I0109 14:35:15.108530  4626 net.cpp:157] Top shape: 1 512 14 14 (100352)
I0109 14:35:15.108536  4626 net.cpp:165] Memory required for data: 162369536
I0109 14:35:15.108541  4626 layer_factory.hpp:77] Creating layer conv5_2
I0109 14:35:15.108552  4626 net.cpp:100] Creating Layer conv5_2
I0109 14:35:15.108557  4626 net.cpp:434] conv5_2 <- conv5_1
I0109 14:35:15.108566  4626 net.cpp:408] conv5_2 -> conv5_2
I0109 14:35:15.116235  4626 net.cpp:150] Setting up conv5_2
I0109 14:35:15.116261  4626 net.cpp:157] Top shape: 1 512 14 14 (100352)
I0109 14:35:15.116266  4626 net.cpp:165] Memory required for data: 162770944
I0109 14:35:15.116276  4626 layer_factory.hpp:77] Creating layer relu5_2
I0109 14:35:15.116297  4626 net.cpp:100] Creating Layer relu5_2
I0109 14:35:15.116304  4626 net.cpp:434] relu5_2 <- conv5_2
I0109 14:35:15.116312  4626 net.cpp:395] relu5_2 -> conv5_2 (in-place)
I0109 14:35:15.116322  4626 net.cpp:150] Setting up relu5_2
I0109 14:35:15.116329  4626 net.cpp:157] Top shape: 1 512 14 14 (100352)
I0109 14:35:15.116334  4626 net.cpp:165] Memory required for data: 163172352
I0109 14:35:15.116339  4626 layer_factory.hpp:77] Creating layer conv5_3
I0109 14:35:15.116353  4626 net.cpp:100] Creating Layer conv5_3
I0109 14:35:15.116358  4626 net.cpp:434] conv5_3 <- conv5_2
I0109 14:35:15.116366  4626 net.cpp:408] conv5_3 -> conv5_3
I0109 14:35:15.124011  4626 net.cpp:150] Setting up conv5_3
I0109 14:35:15.124035  4626 net.cpp:157] Top shape: 1 512 14 14 (100352)
I0109 14:35:15.124042  4626 net.cpp:165] Memory required for data: 163573760
I0109 14:35:15.124052  4626 layer_factory.hpp:77] Creating layer relu5_3
I0109 14:35:15.124060  4626 net.cpp:100] Creating Layer relu5_3
I0109 14:35:15.124068  4626 net.cpp:434] relu5_3 <- conv5_3
I0109 14:35:15.124078  4626 net.cpp:395] relu5_3 -> conv5_3 (in-place)
I0109 14:35:15.124086  4626 net.cpp:150] Setting up relu5_3
I0109 14:35:15.124094  4626 net.cpp:157] Top shape: 1 512 14 14 (100352)
I0109 14:35:15.124099  4626 net.cpp:165] Memory required for data: 163975168
I0109 14:35:15.124104  4626 layer_factory.hpp:77] Creating layer conv5_3_relu5_3_0_split
I0109 14:35:15.124114  4626 net.cpp:100] Creating Layer conv5_3_relu5_3_0_split
I0109 14:35:15.124119  4626 net.cpp:434] conv5_3_relu5_3_0_split <- conv5_3
I0109 14:35:15.124130  4626 net.cpp:408] conv5_3_relu5_3_0_split -> conv5_3_relu5_3_0_split_0
I0109 14:35:15.124140  4626 net.cpp:408] conv5_3_relu5_3_0_split -> conv5_3_relu5_3_0_split_1
I0109 14:35:15.124218  4626 net.cpp:150] Setting up conv5_3_relu5_3_0_split
I0109 14:35:15.124228  4626 net.cpp:157] Top shape: 1 512 14 14 (100352)
I0109 14:35:15.124234  4626 net.cpp:157] Top shape: 1 512 14 14 (100352)
I0109 14:35:15.124239  4626 net.cpp:165] Memory required for data: 164777984
I0109 14:35:15.124244  4626 layer_factory.hpp:77] Creating layer pool5
I0109 14:35:15.124254  4626 net.cpp:100] Creating Layer pool5
I0109 14:35:15.124260  4626 net.cpp:434] pool5 <- conv5_3_relu5_3_0_split_0
I0109 14:35:15.124272  4626 net.cpp:408] pool5 -> pool5
I0109 14:35:15.124344  4626 net.cpp:150] Setting up pool5
I0109 14:35:15.124352  4626 net.cpp:157] Top shape: 1 512 7 7 (25088)
I0109 14:35:15.124358  4626 net.cpp:165] Memory required for data: 164878336
I0109 14:35:15.124363  4626 layer_factory.hpp:77] Creating layer fc6_conv
I0109 14:35:15.124372  4626 net.cpp:100] Creating Layer fc6_conv
I0109 14:35:15.124390  4626 net.cpp:434] fc6_conv <- pool5
I0109 14:35:15.124402  4626 net.cpp:408] fc6_conv -> fc6_conv
I0109 14:35:15.420483  4626 net.cpp:150] Setting up fc6_conv
I0109 14:35:15.420533  4626 net.cpp:157] Top shape: 1 4096 1 1 (4096)
I0109 14:35:15.420538  4626 net.cpp:165] Memory required for data: 164894720
I0109 14:35:15.420550  4626 layer_factory.hpp:77] Creating layer relu6
I0109 14:35:15.420562  4626 net.cpp:100] Creating Layer relu6
I0109 14:35:15.420567  4626 net.cpp:434] relu6 <- fc6_conv
I0109 14:35:15.420575  4626 net.cpp:395] relu6 -> fc6_conv (in-place)
I0109 14:35:15.420585  4626 net.cpp:150] Setting up relu6
I0109 14:35:15.420590  4626 net.cpp:157] Top shape: 1 4096 1 1 (4096)
I0109 14:35:15.420594  4626 net.cpp:165] Memory required for data: 164911104
I0109 14:35:15.420598  4626 layer_factory.hpp:77] Creating layer drop6
I0109 14:35:15.420609  4626 net.cpp:100] Creating Layer drop6
I0109 14:35:15.420614  4626 net.cpp:434] drop6 <- fc6_conv
I0109 14:35:15.420619  4626 net.cpp:395] drop6 -> fc6_conv (in-place)
I0109 14:35:15.420655  4626 net.cpp:150] Setting up drop6
I0109 14:35:15.420661  4626 net.cpp:157] Top shape: 1 4096 1 1 (4096)
I0109 14:35:15.420665  4626 net.cpp:165] Memory required for data: 164927488
I0109 14:35:15.420670  4626 layer_factory.hpp:77] Creating layer fc7_conv
I0109 14:35:15.420680  4626 net.cpp:100] Creating Layer fc7_conv
I0109 14:35:15.420686  4626 net.cpp:434] fc7_conv <- fc6_conv
I0109 14:35:15.420693  4626 net.cpp:408] fc7_conv -> fc7_conv
I0109 14:35:15.485165  4626 net.cpp:150] Setting up fc7_conv
I0109 14:35:15.485232  4626 net.cpp:157] Top shape: 1 4096 1 1 (4096)
I0109 14:35:15.485241  4626 net.cpp:165] Memory required for data: 164943872
I0109 14:35:15.485256  4626 layer_factory.hpp:77] Creating layer relu7
I0109 14:35:15.485272  4626 net.cpp:100] Creating Layer relu7
I0109 14:35:15.485280  4626 net.cpp:434] relu7 <- fc7_conv
I0109 14:35:15.485297  4626 net.cpp:395] relu7 -> fc7_conv (in-place)
I0109 14:35:15.485313  4626 net.cpp:150] Setting up relu7
I0109 14:35:15.485322  4626 net.cpp:157] Top shape: 1 4096 1 1 (4096)
I0109 14:35:15.485328  4626 net.cpp:165] Memory required for data: 164960256
I0109 14:35:15.485334  4626 layer_factory.hpp:77] Creating layer drop7
I0109 14:35:15.485345  4626 net.cpp:100] Creating Layer drop7
I0109 14:35:15.485352  4626 net.cpp:434] drop7 <- fc7_conv
I0109 14:35:15.485363  4626 net.cpp:395] drop7 -> fc7_conv (in-place)
I0109 14:35:15.485417  4626 net.cpp:150] Setting up drop7
I0109 14:35:15.485427  4626 net.cpp:157] Top shape: 1 4096 1 1 (4096)
I0109 14:35:15.485433  4626 net.cpp:165] Memory required for data: 164976640
I0109 14:35:15.485440  4626 layer_factory.hpp:77] Creating layer rand_concat
I0109 14:35:15.485455  4626 net.cpp:100] Creating Layer rand_concat
I0109 14:35:15.485462  4626 net.cpp:434] rand_concat <- conv1_2_relu1_2_0_split_1
I0109 14:35:15.485471  4626 net.cpp:434] rand_concat <- conv2_2_relu2_2_0_split_1
I0109 14:35:15.485478  4626 net.cpp:434] rand_concat <- conv3_3_relu3_3_0_split_1
I0109 14:35:15.485486  4626 net.cpp:434] rand_concat <- conv4_3_relu4_3_0_split_1
I0109 14:35:15.485493  4626 net.cpp:434] rand_concat <- conv5_3_relu5_3_0_split_1
I0109 14:35:15.485500  4626 net.cpp:434] rand_concat <- fc7_conv
I0109 14:35:15.485507  4626 net.cpp:434] rand_concat <- pixels
I0109 14:35:15.485517  4626 net.cpp:408] rand_concat -> fc5
I0109 14:35:15.485574  4626 net.cpp:150] Setting up rand_concat
I0109 14:35:15.485589  4626 net.cpp:157] Top shape: 50176 5568 (279379968)
I0109 14:35:15.485595  4626 net.cpp:165] Memory required for data: 1282496512
I0109 14:35:15.485602  4626 layer_factory.hpp:77] Creating layer fc6_new
I0109 14:35:15.485613  4626 net.cpp:100] Creating Layer fc6_new
I0109 14:35:15.485620  4626 net.cpp:434] fc6_new <- fc5
I0109 14:35:15.485635  4626 net.cpp:408] fc6_new -> fc6_new
I0109 14:35:15.745965  4626 net.cpp:150] Setting up fc6_new
I0109 14:35:15.746008  4626 net.cpp:157] Top shape: 50176 4096 (205520896)
I0109 14:35:15.746012  4626 net.cpp:165] Memory required for data: 2104580096
I0109 14:35:15.746037  4626 layer_factory.hpp:77] Creating layer relu6_new
I0109 14:35:15.746049  4626 net.cpp:100] Creating Layer relu6_new
I0109 14:35:15.746054  4626 net.cpp:434] relu6_new <- fc6_new
I0109 14:35:15.746062  4626 net.cpp:395] relu6_new -> fc6_new (in-place)
I0109 14:35:15.746070  4626 net.cpp:150] Setting up relu6_new
I0109 14:35:15.746075  4626 net.cpp:157] Top shape: 50176 4096 (205520896)
I0109 14:35:15.746078  4626 net.cpp:165] Memory required for data: 2926663680
I0109 14:35:15.746083  4626 layer_factory.hpp:77] Creating layer drop6_new
I0109 14:35:15.746093  4626 net.cpp:100] Creating Layer drop6_new
I0109 14:35:15.746096  4626 net.cpp:434] drop6_new <- fc6_new
I0109 14:35:15.746101  4626 net.cpp:395] drop6_new -> fc6_new (in-place)
I0109 14:35:15.746132  4626 net.cpp:150] Setting up drop6_new
I0109 14:35:15.746137  4626 net.cpp:157] Top shape: 50176 4096 (205520896)
I0109 14:35:15.746141  4626 net.cpp:165] Memory required for data: 3748747264
I0109 14:35:15.746145  4626 layer_factory.hpp:77] Creating layer fc7_new
I0109 14:35:15.746155  4626 net.cpp:100] Creating Layer fc7_new
I0109 14:35:15.746158  4626 net.cpp:434] fc7_new <- fc6_new
I0109 14:35:15.746165  4626 net.cpp:408] fc7_new -> fc7_new
I0109 14:35:15.928061  4626 net.cpp:150] Setting up fc7_new
I0109 14:35:15.928107  4626 net.cpp:157] Top shape: 50176 4096 (205520896)
I0109 14:35:15.928110  4626 net.cpp:165] Memory required for data: 4570830848
I0109 14:35:15.928130  4626 layer_factory.hpp:77] Creating layer relu7_new
I0109 14:35:15.928141  4626 net.cpp:100] Creating Layer relu7_new
I0109 14:35:15.928148  4626 net.cpp:434] relu7_new <- fc7_new
I0109 14:35:15.928154  4626 net.cpp:395] relu7_new -> fc7_new (in-place)
I0109 14:35:15.928164  4626 net.cpp:150] Setting up relu7_new
I0109 14:35:15.928167  4626 net.cpp:157] Top shape: 50176 4096 (205520896)
I0109 14:35:15.928170  4626 net.cpp:165] Memory required for data: 5392914432
I0109 14:35:15.928174  4626 layer_factory.hpp:77] Creating layer drop7_new
I0109 14:35:15.928180  4626 net.cpp:100] Creating Layer drop7_new
I0109 14:35:15.928184  4626 net.cpp:434] drop7_new <- fc7_new
I0109 14:35:15.928191  4626 net.cpp:395] drop7_new -> fc7_new (in-place)
I0109 14:35:15.928225  4626 net.cpp:150] Setting up drop7_new
I0109 14:35:15.928231  4626 net.cpp:157] Top shape: 50176 4096 (205520896)
I0109 14:35:15.928233  4626 net.cpp:165] Memory required for data: 6214998016
I0109 14:35:15.928236  4626 layer_factory.hpp:77] Creating layer cls_score_new
I0109 14:35:15.928246  4626 net.cpp:100] Creating Layer cls_score_new
I0109 14:35:15.928251  4626 net.cpp:434] cls_score_new <- fc7_new
I0109 14:35:15.928258  4626 net.cpp:408] cls_score_new -> fc8_new
I0109 14:35:15.928598  4626 net.cpp:150] Setting up cls_score_new
I0109 14:35:15.928606  4626 net.cpp:157] Top shape: 50176 3 (150528)
I0109 14:35:15.928609  4626 net.cpp:165] Memory required for data: 6215600128
I0109 14:35:15.928614  4626 layer_factory.hpp:77] Creating layer loss_cls
I0109 14:35:15.928620  4626 net.cpp:100] Creating Layer loss_cls
I0109 14:35:15.928624  4626 net.cpp:434] loss_cls <- fc8_new
I0109 14:35:15.928628  4626 net.cpp:434] loss_cls <- labels
I0109 14:35:15.928633  4626 net.cpp:408] loss_cls -> loss_cls
…
