…
W0107 17:10:36.255604 173020 upgrade_proto.cpp:71] Note that future Caffe releases will only support input layers and not input fields.
I0107 17:10:36.256122 173020 net.cpp:58] Initializing net from parameters: 
name: "VGG16_SemanticSegmentation_MLP"
state {
  phase: TRAIN
}
layer {
  name: "input"
  type: "Input"
  top: "data"
  top: "pixels"
  top: "labels"
  input_param {
    shape {
      dim: 1
      dim: 3
      dim: 224
      dim: 224
    }
    shape {
      dim: 50176
      dim: 3
    }
    shape {
      dim: 50176
      dim: 1
    }
  }
}
layer {
  name: "conv1_1"
  type: "Convolution"
  bottom: "data"
  top: "conv1_1"
  param {
    lr_mult: 1
    decay_mult: 1
  }
  param {
    lr_mult: 2
    decay_mult: 0
  }
  convolution_param {
    num_output: 64
    pad: 1
    kernel_size: 3
  }
}
layer {
  name: "relu1_1"
  type: "ReLU"
  bottom: "conv1_1"
  top: "conv1_1"
}
layer {
  name: "conv1_2"
  type: "Convolution"
  bottom: "conv1_1"
  top: "conv1_2"
  param {
    lr_mult: 1
    decay_mult: 1
  }
  param {
    lr_mult: 2
    decay_mult: 0
  }
  convolution_param {
    num_output: 64
    pad: 1
    kernel_size: 3
  }
}
layer {
  name: "relu1_2"
  type: "ReLU"
  bottom: "conv1_2"
  top: "conv1_2"
}
layer {
  name: "pool1"
  type: "Pooling"
  bottom: "conv1_2"
  top: "pool1"
  pooling_param {
    pool: MAX
    kernel_size: 2
    stride: 2
  }
}
layer {
  name: "conv2_1"
  type: "Convolution"
  bottom: "pool1"
  top: "conv2_1"
  param {
    lr_mult: 1
    decay_mult: 1
  }
  param {
    lr_mult: 2
    decay_mult: 0
  }
  convolution_param {
    num_output: 128
    pad: 1
    kernel_size: 3
  }
}
layer {
  name: "relu2_1"
  type: "ReLU"
  bottom: "conv2_1"
  top: "conv2_1"
}
layer {
  name: "conv2_2"
  type: "Convolution"
  bottom: "conv2_1"
  top: "conv2_2"
  param {
    lr_mult: 1
    decay_mult: 1
  }
  param {
    lr_mult: 2
    decay_mult: 0
  }
  convolution_param {
    num_output: 128
    pad: 1
    kernel_size: 3
  }
}
layer {
  name: "relu2_2"
  type: "ReLU"
  bottom: "conv2_2"
  top: "conv2_2"
}
layer {
  name: "pool2"
  type: "Pooling"
  bottom: "conv2_2"
  top: "pool2"
  pooling_param {
    pool: MAX
    kernel_size: 2
    stride: 2
  }
}
layer {
  name: "conv3_1"
  type: "Convolution"
  bottom: "pool2"
  top: "conv3_1"
  param {
    lr_mult: 1
    decay_mult: 1
  }
  param {
    lr_mult: 2
    decay_mult: 0
  }
  convolution_param {
    num_output: 256
    pad: 1
    kernel_size: 3
  }
}
layer {
  name: "relu3_1"
  type: "ReLU"
  bottom: "conv3_1"
  top: "conv3_1"
}
layer {
  name: "conv3_2"
  type: "Convolution"
  bottom: "conv3_1"
  top: "conv3_2"
  param {
    lr_mult: 1
    decay_mult: 1
  }
  param {
    lr_mult: 2
    decay_mult: 0
  }
  convolution_param {
    num_output: 256
    pad: 1
    kernel_size: 3
  }
}
layer {
  name: "relu3_2"
  type: "ReLU"
  bottom: "conv3_2"
  top: "conv3_2"
}
layer {
  name: "conv3_3"
  type: "Convolution"
  bottom: "conv3_2"
  top: "conv3_3"
  param {
    lr_mult: 1
    decay_mult: 1
  }
  param {
    lr_mult: 2
    decay_mult: 0
  }
  convolution_param {
    num_output: 256
    pad: 1
    kernel_size: 3
  }
}
layer {
  name: "relu3_3"
  type: "ReLU"
  bottom: "conv3_3"
  top: "conv3_3"
}
layer {
  name: "pool3"
  type: "Pooling"
  bottom: "conv3_3"
  top: "pool3"
  pooling_param {
    pool: MAX
    kernel_size: 2
    stride: 2
  }
}
layer {
  name: "conv4_1"
  type: "Convolution"
  bottom: "pool3"
  top: "conv4_1"
  param {
    lr_mult: 1
    decay_mult: 1
  }
  param {
    lr_mult: 2
    decay_mult: 0
  }
  convolution_param {
    num_output: 512
    pad: 1
    kernel_size: 3
  }
}
layer {
  name: "relu4_1"
  type: "ReLU"
  bottom: "conv4_1"
  top: "conv4_1"
}
layer {
  name: "conv4_2"
  type: "Convolution"
  bottom: "conv4_1"
  top: "conv4_2"
  param {
    lr_mult: 1
    decay_mult: 1
  }
  param {
    lr_mult: 2
    decay_mult: 0
  }
  convolution_param {
    num_output: 512
    pad: 1
    kernel_size: 3
  }
}
layer {
  name: "relu4_2"
  type: "ReLU"
  bottom: "conv4_2"
  top: "conv4_2"
}
layer {
  name: "conv4_3"
  type: "Convolution"
  bottom: "conv4_2"
  top: "conv4_3"
  param {
    lr_mult: 1
    decay_mult: 1
  }
  param {
    lr_mult: 2
    decay_mult: 0
  }
  convolution_param {
    num_output: 512
    pad: 1
    kernel_size: 3
  }
}
layer {
  name: "relu4_3"
  type: "ReLU"
  bottom: "conv4_3"
  top: "conv4_3"
}
layer {
  name: "pool4"
  type: "Pooling"
  bottom: "conv4_3"
  top: "pool4"
  pooling_param {
    pool: MAX
    kernel_size: 2
    stride: 2
  }
}
layer {
  name: "conv5_1"
  type: "Convolution"
  bottom: "pool4"
  top: "conv5_1"
  param {
    lr_mult: 1
    decay_mult: 1
  }
  param {
    lr_mult: 2
    decay_mult: 0
  }
  convolution_param {
    num_output: 512
    pad: 1
    kernel_size: 3
  }
}
layer {
  name: "relu5_1"
  type: "ReLU"
  bottom: "conv5_1"
  top: "conv5_1"
}
layer {
  name: "conv5_2"
  type: "Convolution"
  bottom: "conv5_1"
  top: "conv5_2"
  param {
    lr_mult: 1
    decay_mult: 1
  }
  param {
    lr_mult: 2
    decay_mult: 0
  }
  convolution_param {
    num_output: 512
    pad: 1
    kernel_size: 3
  }
}
layer {
  name: "relu5_2"
  type: "ReLU"
  bottom: "conv5_2"
  top: "conv5_2"
}
layer {
  name: "conv5_3"
  type: "Convolution"
  bottom: "conv5_2"
  top: "conv5_3"
  param {
    lr_mult: 1
    decay_mult: 1
  }
  param {
    lr_mult: 2
    decay_mult: 0
  }
  convolution_param {
    num_output: 512
    pad: 1
    kernel_size: 3
  }
}
layer {
  name: "relu5_3"
  type: "ReLU"
  bottom: "conv5_3"
  top: "conv5_3"
}
layer {
  name: "pool5"
  type: "Pooling"
  bottom: "conv5_3"
  top: "pool5"
  pooling_param {
    pool: MAX
    kernel_size: 2
    stride: 2
  }
}
layer {
  name: "fc6_conv"
  type: "Convolution"
  bottom: "pool5"
  top: "fc6_conv"
  convolution_param {
    num_output: 4096
    kernel_size: 7
  }
}
layer {
  name: "relu6"
  type: "ReLU"
  bottom: "fc6_conv"
  top: "fc6_conv"
}
layer {
  name: "drop6"
  type: "Dropout"
  bottom: "fc6_conv"
  top: "fc6_conv"
  dropout_param {
    dropout_ratio: 0.5
  }
}
layer {
  name: "fc7_conv"
  type: "Convolution"
  bottom: "fc6_conv"
  top: "fc7_conv"
  convolution_param {
    num_output: 4096
    kernel_size: 1
  }
}
layer {
  name: "relu7"
  type: "ReLU"
  bottom: "fc7_conv"
  top: "fc7_conv"
}
layer {
  name: "drop7"
  type: "Dropout"
  bottom: "fc7_conv"
  top: "fc7_conv"
  dropout_param {
    dropout_ratio: 0.5
  }
}
layer {
  name: "rand_concat"
  type: "RandBI"
  bottom: "conv1_2"
  bottom: "conv2_2"
  bottom: "conv3_3"
  bottom: "conv4_3"
  bottom: "conv5_3"
  bottom: "fc7_conv"
  bottom: "pixels"
  top: "fc5"
  rand_comp_param {
    compression_rate: 1
    compression_rate: 2
    compression_rate: 4
    compression_rate: 8
    compression_rate: 16
    compression_rate: 224
    pad: true
  }
}
layer {
  name: "fc6_new"
  type: "InnerProduct"
  bottom: "fc5"
  top: "fc6_new"
  param {
    lr_mult: 1
    decay_mult: 1
  }
  param {
    lr_mult: 2
    decay_mult: 0
  }
  inner_product_param {
    num_output: 4096
    weight_filler {
      type: "gaussian"
      std: 0.001
    }
    bias_filler {
      type: "constant"
      value: 0
    }
  }
}
layer {
  name: "relu6_new"
  type: "ReLU"
  bottom: "fc6_new"
  top: "fc6_new"
}
layer {
  name: "drop6_new"
  type: "Dropout"
  bottom: "fc6_new"
  top: "fc6_new"
  dropout_param {
    dropout_ratio: 0.5
  }
}
layer {
  name: "fc7_new"
  type: "InnerProduct"
  bottom: "fc6_new"
  top: "fc7_new"
  param {
    lr_mult: 1
    decay_mult: 1
  }
  param {
    lr_mult: 2
    decay_mult: 0
  }
  inner_product_param {
    num_output: 4096
    weight_filler {
      type: "gaussian"
      std: 0.001
    }
    bias_filler {
      type: "constant"
      value: 0
    }
  }
}
layer {
  name: "relu7_new"
  type: "ReLU"
  bottom: "fc7_new"
  top: "fc7_new"
}
layer {
  name: "drop7_new"
  type: "Dropout"
  bottom: "fc7_new"
  top: "fc7_new"
  dropout_param {
    dropout_ratio: 0.5
  }
}
layer {
  name: "cls_score_new"
  type: "InnerProduct"
  bottom: "fc7_new"
  top: "fc8_new"
  param {
    lr_mult: 1
    decay_mult: 1
  }
  param {
    lr_mult: 2
    decay_mult: 0
  }
  inner_product_param {
    num_output: 3
    weight_filler {
      type: "gaussian"
      std: 0.001
    }
    bias_filler {
      type: "constant"
      value: 0
    }
  }
}
layer {
  name: "loss_cls"
  type: "SoftmaxWithLoss"
  bottom: "fc8_new"
  bottom: "labels"
  top: "loss_cls"
}
I0107 17:10:36.256443 173020 layer_factory.hpp:77] Creating layer input
I0107 17:10:36.256464 173020 net.cpp:100] Creating Layer input
I0107 17:10:36.256474 173020 net.cpp:408] input -> data
I0107 17:10:36.256491 173020 net.cpp:408] input -> pixels
I0107 17:10:36.256505 173020 net.cpp:408] input -> labels
I0107 17:10:36.288208 173020 net.cpp:150] Setting up input
I0107 17:10:36.288252 173020 net.cpp:157] Top shape: 1 3 224 224 (150528)
I0107 17:10:36.288259 173020 net.cpp:157] Top shape: 50176 3 (150528)
I0107 17:10:36.288264 173020 net.cpp:157] Top shape: 50176 1 (50176)
I0107 17:10:36.288267 173020 net.cpp:165] Memory required for data: 1404928
I0107 17:10:36.288275 173020 layer_factory.hpp:77] Creating layer conv1_1
I0107 17:10:36.288296 173020 net.cpp:100] Creating Layer conv1_1
I0107 17:10:36.288301 173020 net.cpp:434] conv1_1 <- data
I0107 17:10:36.288311 173020 net.cpp:408] conv1_1 -> conv1_1
I0107 17:10:36.291769 173020 net.cpp:150] Setting up conv1_1
I0107 17:10:36.291836 173020 net.cpp:157] Top shape: 1 64 224 224 (3211264)
I0107 17:10:36.291853 173020 net.cpp:165] Memory required for data: 14249984
I0107 17:10:36.291885 173020 layer_factory.hpp:77] Creating layer relu1_1
I0107 17:10:36.291903 173020 net.cpp:100] Creating Layer relu1_1
I0107 17:10:36.291910 173020 net.cpp:434] relu1_1 <- conv1_1
I0107 17:10:36.291920 173020 net.cpp:395] relu1_1 -> conv1_1 (in-place)
I0107 17:10:36.291944 173020 net.cpp:150] Setting up relu1_1
I0107 17:10:36.291952 173020 net.cpp:157] Top shape: 1 64 224 224 (3211264)
I0107 17:10:36.291960 173020 net.cpp:165] Memory required for data: 27095040
I0107 17:10:36.291965 173020 layer_factory.hpp:77] Creating layer conv1_2
I0107 17:10:36.291978 173020 net.cpp:100] Creating Layer conv1_2
I0107 17:10:36.291985 173020 net.cpp:434] conv1_2 <- conv1_1
I0107 17:10:36.291995 173020 net.cpp:408] conv1_2 -> conv1_2
I0107 17:10:36.293201 173020 net.cpp:150] Setting up conv1_2
I0107 17:10:36.293229 173020 net.cpp:157] Top shape: 1 64 224 224 (3211264)
I0107 17:10:36.293243 173020 net.cpp:165] Memory required for data: 39940096
I0107 17:10:36.293270 173020 layer_factory.hpp:77] Creating layer relu1_2
I0107 17:10:36.293299 173020 net.cpp:100] Creating Layer relu1_2
I0107 17:10:36.293313 173020 net.cpp:434] relu1_2 <- conv1_2
I0107 17:10:36.293329 173020 net.cpp:395] relu1_2 -> conv1_2 (in-place)
I0107 17:10:36.293349 173020 net.cpp:150] Setting up relu1_2
I0107 17:10:36.293366 173020 net.cpp:157] Top shape: 1 64 224 224 (3211264)
I0107 17:10:36.293378 173020 net.cpp:165] Memory required for data: 52785152
I0107 17:10:36.293391 173020 layer_factory.hpp:77] Creating layer conv1_2_relu1_2_0_split
I0107 17:10:36.293428 173020 net.cpp:100] Creating Layer conv1_2_relu1_2_0_split
I0107 17:10:36.293442 173020 net.cpp:434] conv1_2_relu1_2_0_split <- conv1_2
I0107 17:10:36.293459 173020 net.cpp:408] conv1_2_relu1_2_0_split -> conv1_2_relu1_2_0_split_0
I0107 17:10:36.293480 173020 net.cpp:408] conv1_2_relu1_2_0_split -> conv1_2_relu1_2_0_split_1
I0107 17:10:36.293614 173020 net.cpp:150] Setting up conv1_2_relu1_2_0_split
I0107 17:10:36.293633 173020 net.cpp:157] Top shape: 1 64 224 224 (3211264)
I0107 17:10:36.293651 173020 net.cpp:157] Top shape: 1 64 224 224 (3211264)
I0107 17:10:36.293663 173020 net.cpp:165] Memory required for data: 78475264
I0107 17:10:36.293678 173020 layer_factory.hpp:77] Creating layer pool1
I0107 17:10:36.293697 173020 net.cpp:100] Creating Layer pool1
I0107 17:10:36.293710 173020 net.cpp:434] pool1 <- conv1_2_relu1_2_0_split_0
I0107 17:10:36.293728 173020 net.cpp:408] pool1 -> pool1
I0107 17:10:36.293853 173020 net.cpp:150] Setting up pool1
I0107 17:10:36.293879 173020 net.cpp:157] Top shape: 1 64 112 112 (802816)
I0107 17:10:36.293891 173020 net.cpp:165] Memory required for data: 81686528
I0107 17:10:36.293908 173020 layer_factory.hpp:77] Creating layer conv2_1
I0107 17:10:36.293932 173020 net.cpp:100] Creating Layer conv2_1
I0107 17:10:36.293946 173020 net.cpp:434] conv2_1 <- pool1
I0107 17:10:36.293963 173020 net.cpp:408] conv2_1 -> conv2_1
I0107 17:10:36.305214 173020 net.cpp:150] Setting up conv2_1
I0107 17:10:36.305280 173020 net.cpp:157] Top shape: 1 128 112 112 (1605632)
I0107 17:10:36.305289 173020 net.cpp:165] Memory required for data: 88109056
I0107 17:10:36.305315 173020 layer_factory.hpp:77] Creating layer relu2_1
I0107 17:10:36.305335 173020 net.cpp:100] Creating Layer relu2_1
I0107 17:10:36.305346 173020 net.cpp:434] relu2_1 <- conv2_1
I0107 17:10:36.305358 173020 net.cpp:395] relu2_1 -> conv2_1 (in-place)
I0107 17:10:36.305374 173020 net.cpp:150] Setting up relu2_1
I0107 17:10:36.305384 173020 net.cpp:157] Top shape: 1 128 112 112 (1605632)
I0107 17:10:36.305392 173020 net.cpp:165] Memory required for data: 94531584
I0107 17:10:36.305398 173020 layer_factory.hpp:77] Creating layer conv2_2
I0107 17:10:36.305414 173020 net.cpp:100] Creating Layer conv2_2
I0107 17:10:36.305421 173020 net.cpp:434] conv2_2 <- conv2_1
I0107 17:10:36.305433 173020 net.cpp:408] conv2_2 -> conv2_2
I0107 17:10:36.306280 173020 net.cpp:150] Setting up conv2_2
I0107 17:10:36.306298 173020 net.cpp:157] Top shape: 1 128 112 112 (1605632)
I0107 17:10:36.306305 173020 net.cpp:165] Memory required for data: 100954112
I0107 17:10:36.306318 173020 layer_factory.hpp:77] Creating layer relu2_2
I0107 17:10:36.306329 173020 net.cpp:100] Creating Layer relu2_2
I0107 17:10:36.306336 173020 net.cpp:434] relu2_2 <- conv2_2
I0107 17:10:36.306346 173020 net.cpp:395] relu2_2 -> conv2_2 (in-place)
I0107 17:10:36.306358 173020 net.cpp:150] Setting up relu2_2
I0107 17:10:36.306368 173020 net.cpp:157] Top shape: 1 128 112 112 (1605632)
I0107 17:10:36.306375 173020 net.cpp:165] Memory required for data: 107376640
I0107 17:10:36.306381 173020 layer_factory.hpp:77] Creating layer conv2_2_relu2_2_0_split
I0107 17:10:36.306393 173020 net.cpp:100] Creating Layer conv2_2_relu2_2_0_split
I0107 17:10:36.306401 173020 net.cpp:434] conv2_2_relu2_2_0_split <- conv2_2
I0107 17:10:36.306411 173020 net.cpp:408] conv2_2_relu2_2_0_split -> conv2_2_relu2_2_0_split_0
I0107 17:10:36.306422 173020 net.cpp:408] conv2_2_relu2_2_0_split -> conv2_2_relu2_2_0_split_1
I0107 17:10:36.306501 173020 net.cpp:150] Setting up conv2_2_relu2_2_0_split
I0107 17:10:36.306514 173020 net.cpp:157] Top shape: 1 128 112 112 (1605632)
I0107 17:10:36.306522 173020 net.cpp:157] Top shape: 1 128 112 112 (1605632)
I0107 17:10:36.306529 173020 net.cpp:165] Memory required for data: 120221696
I0107 17:10:36.306536 173020 layer_factory.hpp:77] Creating layer pool2
I0107 17:10:36.306548 173020 net.cpp:100] Creating Layer pool2
I0107 17:10:36.306555 173020 net.cpp:434] pool2 <- conv2_2_relu2_2_0_split_0
I0107 17:10:36.306566 173020 net.cpp:408] pool2 -> pool2
I0107 17:10:36.306644 173020 net.cpp:150] Setting up pool2
I0107 17:10:36.306672 173020 net.cpp:157] Top shape: 1 128 56 56 (401408)
I0107 17:10:36.306680 173020 net.cpp:165] Memory required for data: 121827328
I0107 17:10:36.306687 173020 layer_factory.hpp:77] Creating layer conv3_1
I0107 17:10:36.306702 173020 net.cpp:100] Creating Layer conv3_1
I0107 17:10:36.306710 173020 net.cpp:434] conv3_1 <- pool2
I0107 17:10:36.306721 173020 net.cpp:408] conv3_1 -> conv3_1
I0107 17:10:36.307713 173020 net.cpp:150] Setting up conv3_1
I0107 17:10:36.307727 173020 net.cpp:157] Top shape: 1 256 56 56 (802816)
I0107 17:10:36.307734 173020 net.cpp:165] Memory required for data: 125038592
I0107 17:10:36.307749 173020 layer_factory.hpp:77] Creating layer relu3_1
I0107 17:10:36.307760 173020 net.cpp:100] Creating Layer relu3_1
I0107 17:10:36.307768 173020 net.cpp:434] relu3_1 <- conv3_1
I0107 17:10:36.307778 173020 net.cpp:395] relu3_1 -> conv3_1 (in-place)
I0107 17:10:36.307801 173020 net.cpp:150] Setting up relu3_1
I0107 17:10:36.307818 173020 net.cpp:157] Top shape: 1 256 56 56 (802816)
I0107 17:10:36.307826 173020 net.cpp:165] Memory required for data: 128249856
I0107 17:10:36.307832 173020 layer_factory.hpp:77] Creating layer conv3_2
I0107 17:10:36.307844 173020 net.cpp:100] Creating Layer conv3_2
I0107 17:10:36.307852 173020 net.cpp:434] conv3_2 <- conv3_1
I0107 17:10:36.307862 173020 net.cpp:408] conv3_2 -> conv3_2
I0107 17:10:36.311235 173020 net.cpp:150] Setting up conv3_2
I0107 17:10:36.311264 173020 net.cpp:157] Top shape: 1 256 56 56 (802816)
I0107 17:10:36.311270 173020 net.cpp:165] Memory required for data: 131461120
I0107 17:10:36.311283 173020 layer_factory.hpp:77] Creating layer relu3_2
I0107 17:10:36.311300 173020 net.cpp:100] Creating Layer relu3_2
I0107 17:10:36.311307 173020 net.cpp:434] relu3_2 <- conv3_2
I0107 17:10:36.311318 173020 net.cpp:395] relu3_2 -> conv3_2 (in-place)
I0107 17:10:36.311331 173020 net.cpp:150] Setting up relu3_2
I0107 17:10:36.311339 173020 net.cpp:157] Top shape: 1 256 56 56 (802816)
I0107 17:10:36.311345 173020 net.cpp:165] Memory required for data: 134672384
I0107 17:10:36.311353 173020 layer_factory.hpp:77] Creating layer conv3_3
I0107 17:10:36.311367 173020 net.cpp:100] Creating Layer conv3_3
I0107 17:10:36.311374 173020 net.cpp:434] conv3_3 <- conv3_2
I0107 17:10:36.311385 173020 net.cpp:408] conv3_3 -> conv3_3
I0107 17:10:36.314630 173020 net.cpp:150] Setting up conv3_3
I0107 17:10:36.314663 173020 net.cpp:157] Top shape: 1 256 56 56 (802816)
I0107 17:10:36.314672 173020 net.cpp:165] Memory required for data: 137883648
I0107 17:10:36.314685 173020 layer_factory.hpp:77] Creating layer relu3_3
I0107 17:10:36.314699 173020 net.cpp:100] Creating Layer relu3_3
I0107 17:10:36.314708 173020 net.cpp:434] relu3_3 <- conv3_3
I0107 17:10:36.314720 173020 net.cpp:395] relu3_3 -> conv3_3 (in-place)
I0107 17:10:36.314733 173020 net.cpp:150] Setting up relu3_3
I0107 17:10:36.314743 173020 net.cpp:157] Top shape: 1 256 56 56 (802816)
I0107 17:10:36.314750 173020 net.cpp:165] Memory required for data: 141094912
I0107 17:10:36.314757 173020 layer_factory.hpp:77] Creating layer conv3_3_relu3_3_0_split
I0107 17:10:36.314769 173020 net.cpp:100] Creating Layer conv3_3_relu3_3_0_split
I0107 17:10:36.314775 173020 net.cpp:434] conv3_3_relu3_3_0_split <- conv3_3
I0107 17:10:36.314786 173020 net.cpp:408] conv3_3_relu3_3_0_split -> conv3_3_relu3_3_0_split_0
I0107 17:10:36.314805 173020 net.cpp:408] conv3_3_relu3_3_0_split -> conv3_3_relu3_3_0_split_1
I0107 17:10:36.314891 173020 net.cpp:150] Setting up conv3_3_relu3_3_0_split
I0107 17:10:36.314905 173020 net.cpp:157] Top shape: 1 256 56 56 (802816)
I0107 17:10:36.314915 173020 net.cpp:157] Top shape: 1 256 56 56 (802816)
I0107 17:10:36.314923 173020 net.cpp:165] Memory required for data: 147517440
I0107 17:10:36.314929 173020 layer_factory.hpp:77] Creating layer pool3
I0107 17:10:36.314944 173020 net.cpp:100] Creating Layer pool3
I0107 17:10:36.314951 173020 net.cpp:434] pool3 <- conv3_3_relu3_3_0_split_0
I0107 17:10:36.314965 173020 net.cpp:408] pool3 -> pool3
I0107 17:10:36.315052 173020 net.cpp:150] Setting up pool3
I0107 17:10:36.315080 173020 net.cpp:157] Top shape: 1 256 28 28 (200704)
I0107 17:10:36.315088 173020 net.cpp:165] Memory required for data: 148320256
I0107 17:10:36.315096 173020 layer_factory.hpp:77] Creating layer conv4_1
I0107 17:10:36.315117 173020 net.cpp:100] Creating Layer conv4_1
I0107 17:10:36.315126 173020 net.cpp:434] conv4_1 <- pool3
I0107 17:10:36.315140 173020 net.cpp:408] conv4_1 -> conv4_1
I0107 17:10:36.322124 173020 net.cpp:150] Setting up conv4_1
I0107 17:10:36.322155 173020 net.cpp:157] Top shape: 1 512 28 28 (401408)
I0107 17:10:36.322162 173020 net.cpp:165] Memory required for data: 149925888
I0107 17:10:36.322175 173020 layer_factory.hpp:77] Creating layer relu4_1
I0107 17:10:36.322186 173020 net.cpp:100] Creating Layer relu4_1
I0107 17:10:36.322193 173020 net.cpp:434] relu4_1 <- conv4_1
I0107 17:10:36.322202 173020 net.cpp:395] relu4_1 -> conv4_1 (in-place)
I0107 17:10:36.322212 173020 net.cpp:150] Setting up relu4_1
I0107 17:10:36.322221 173020 net.cpp:157] Top shape: 1 512 28 28 (401408)
I0107 17:10:36.322227 173020 net.cpp:165] Memory required for data: 151531520
I0107 17:10:36.322232 173020 layer_factory.hpp:77] Creating layer conv4_2
I0107 17:10:36.322244 173020 net.cpp:100] Creating Layer conv4_2
I0107 17:10:36.322250 173020 net.cpp:434] conv4_2 <- conv4_1
I0107 17:10:36.322259 173020 net.cpp:408] conv4_2 -> conv4_2
I0107 17:10:36.340591 173020 net.cpp:150] Setting up conv4_2
I0107 17:10:36.340891 173020 net.cpp:157] Top shape: 1 512 28 28 (401408)
I0107 17:10:36.340900 173020 net.cpp:165] Memory required for data: 153137152
I0107 17:10:36.340934 173020 layer_factory.hpp:77] Creating layer relu4_2
I0107 17:10:36.340957 173020 net.cpp:100] Creating Layer relu4_2
I0107 17:10:36.340968 173020 net.cpp:434] relu4_2 <- conv4_2
I0107 17:10:36.340983 173020 net.cpp:395] relu4_2 -> conv4_2 (in-place)
I0107 17:10:36.341001 173020 net.cpp:150] Setting up relu4_2
I0107 17:10:36.341011 173020 net.cpp:157] Top shape: 1 512 28 28 (401408)
I0107 17:10:36.341017 173020 net.cpp:165] Memory required for data: 154742784
I0107 17:10:36.341024 173020 layer_factory.hpp:77] Creating layer conv4_3
I0107 17:10:36.341043 173020 net.cpp:100] Creating Layer conv4_3
I0107 17:10:36.341051 173020 net.cpp:434] conv4_3 <- conv4_2
I0107 17:10:36.341063 173020 net.cpp:408] conv4_3 -> conv4_3
I0107 17:10:36.353657 173020 net.cpp:150] Setting up conv4_3
I0107 17:10:36.353710 173020 net.cpp:157] Top shape: 1 512 28 28 (401408)
I0107 17:10:36.353718 173020 net.cpp:165] Memory required for data: 156348416
I0107 17:10:36.353730 173020 layer_factory.hpp:77] Creating layer relu4_3
I0107 17:10:36.353744 173020 net.cpp:100] Creating Layer relu4_3
I0107 17:10:36.353751 173020 net.cpp:434] relu4_3 <- conv4_3
I0107 17:10:36.353762 173020 net.cpp:395] relu4_3 -> conv4_3 (in-place)
I0107 17:10:36.353775 173020 net.cpp:150] Setting up relu4_3
I0107 17:10:36.353782 173020 net.cpp:157] Top shape: 1 512 28 28 (401408)
I0107 17:10:36.353788 173020 net.cpp:165] Memory required for data: 157954048
I0107 17:10:36.353793 173020 layer_factory.hpp:77] Creating layer conv4_3_relu4_3_0_split
I0107 17:10:36.353802 173020 net.cpp:100] Creating Layer conv4_3_relu4_3_0_split
I0107 17:10:36.353808 173020 net.cpp:434] conv4_3_relu4_3_0_split <- conv4_3
I0107 17:10:36.353816 173020 net.cpp:408] conv4_3_relu4_3_0_split -> conv4_3_relu4_3_0_split_0
I0107 17:10:36.353827 173020 net.cpp:408] conv4_3_relu4_3_0_split -> conv4_3_relu4_3_0_split_1
I0107 17:10:36.353895 173020 net.cpp:150] Setting up conv4_3_relu4_3_0_split
I0107 17:10:36.353905 173020 net.cpp:157] Top shape: 1 512 28 28 (401408)
I0107 17:10:36.353912 173020 net.cpp:157] Top shape: 1 512 28 28 (401408)
I0107 17:10:36.353917 173020 net.cpp:165] Memory required for data: 161165312
I0107 17:10:36.353924 173020 layer_factory.hpp:77] Creating layer pool4
I0107 17:10:36.353933 173020 net.cpp:100] Creating Layer pool4
I0107 17:10:36.353940 173020 net.cpp:434] pool4 <- conv4_3_relu4_3_0_split_0
I0107 17:10:36.353947 173020 net.cpp:408] pool4 -> pool4
I0107 17:10:36.354027 173020 net.cpp:150] Setting up pool4
I0107 17:10:36.354051 173020 net.cpp:157] Top shape: 1 512 14 14 (100352)
I0107 17:10:36.354058 173020 net.cpp:165] Memory required for data: 161566720
I0107 17:10:36.354063 173020 layer_factory.hpp:77] Creating layer conv5_1
I0107 17:10:36.354077 173020 net.cpp:100] Creating Layer conv5_1
I0107 17:10:36.354084 173020 net.cpp:434] conv5_1 <- pool4
I0107 17:10:36.354094 173020 net.cpp:408] conv5_1 -> conv5_1
I0107 17:10:36.365648 173020 net.cpp:150] Setting up conv5_1
I0107 17:10:36.365700 173020 net.cpp:157] Top shape: 1 512 14 14 (100352)
I0107 17:10:36.365707 173020 net.cpp:165] Memory required for data: 161968128
I0107 17:10:36.365720 173020 layer_factory.hpp:77] Creating layer relu5_1
I0107 17:10:36.365734 173020 net.cpp:100] Creating Layer relu5_1
I0107 17:10:36.365742 173020 net.cpp:434] relu5_1 <- conv5_1
I0107 17:10:36.365757 173020 net.cpp:395] relu5_1 -> conv5_1 (in-place)
I0107 17:10:36.365769 173020 net.cpp:150] Setting up relu5_1
I0107 17:10:36.365777 173020 net.cpp:157] Top shape: 1 512 14 14 (100352)
I0107 17:10:36.365782 173020 net.cpp:165] Memory required for data: 162369536
I0107 17:10:36.365788 173020 layer_factory.hpp:77] Creating layer conv5_2
I0107 17:10:36.365801 173020 net.cpp:100] Creating Layer conv5_2
I0107 17:10:36.365808 173020 net.cpp:434] conv5_2 <- conv5_1
I0107 17:10:36.365816 173020 net.cpp:408] conv5_2 -> conv5_2
I0107 17:10:36.377192 173020 net.cpp:150] Setting up conv5_2
I0107 17:10:36.377243 173020 net.cpp:157] Top shape: 1 512 14 14 (100352)
I0107 17:10:36.377250 173020 net.cpp:165] Memory required for data: 162770944
I0107 17:10:36.377264 173020 layer_factory.hpp:77] Creating layer relu5_2
I0107 17:10:36.377290 173020 net.cpp:100] Creating Layer relu5_2
I0107 17:10:36.377298 173020 net.cpp:434] relu5_2 <- conv5_2
I0107 17:10:36.377317 173020 net.cpp:395] relu5_2 -> conv5_2 (in-place)
I0107 17:10:36.377331 173020 net.cpp:150] Setting up relu5_2
I0107 17:10:36.377337 173020 net.cpp:157] Top shape: 1 512 14 14 (100352)
I0107 17:10:36.377342 173020 net.cpp:165] Memory required for data: 163172352
I0107 17:10:36.377347 173020 layer_factory.hpp:77] Creating layer conv5_3
I0107 17:10:36.377393 173020 net.cpp:100] Creating Layer conv5_3
I0107 17:10:36.377401 173020 net.cpp:434] conv5_3 <- conv5_2
I0107 17:10:36.377454 173020 net.cpp:408] conv5_3 -> conv5_3
I0107 17:10:36.389259 173020 net.cpp:150] Setting up conv5_3
I0107 17:10:36.389314 173020 net.cpp:157] Top shape: 1 512 14 14 (100352)
I0107 17:10:36.389322 173020 net.cpp:165] Memory required for data: 163573760
I0107 17:10:36.389344 173020 layer_factory.hpp:77] Creating layer relu5_3
I0107 17:10:36.389356 173020 net.cpp:100] Creating Layer relu5_3
I0107 17:10:36.389364 173020 net.cpp:434] relu5_3 <- conv5_3
I0107 17:10:36.389374 173020 net.cpp:395] relu5_3 -> conv5_3 (in-place)
I0107 17:10:36.389389 173020 net.cpp:150] Setting up relu5_3
I0107 17:10:36.389395 173020 net.cpp:157] Top shape: 1 512 14 14 (100352)
I0107 17:10:36.389400 173020 net.cpp:165] Memory required for data: 163975168
I0107 17:10:36.389405 173020 layer_factory.hpp:77] Creating layer conv5_3_relu5_3_0_split
I0107 17:10:36.389413 173020 net.cpp:100] Creating Layer conv5_3_relu5_3_0_split
I0107 17:10:36.389418 173020 net.cpp:434] conv5_3_relu5_3_0_split <- conv5_3
I0107 17:10:36.389427 173020 net.cpp:408] conv5_3_relu5_3_0_split -> conv5_3_relu5_3_0_split_0
I0107 17:10:36.389436 173020 net.cpp:408] conv5_3_relu5_3_0_split -> conv5_3_relu5_3_0_split_1
I0107 17:10:36.389518 173020 net.cpp:150] Setting up conv5_3_relu5_3_0_split
I0107 17:10:36.389528 173020 net.cpp:157] Top shape: 1 512 14 14 (100352)
I0107 17:10:36.389535 173020 net.cpp:157] Top shape: 1 512 14 14 (100352)
I0107 17:10:36.389539 173020 net.cpp:165] Memory required for data: 164777984
I0107 17:10:36.389544 173020 layer_factory.hpp:77] Creating layer pool5
I0107 17:10:36.389554 173020 net.cpp:100] Creating Layer pool5
I0107 17:10:36.389559 173020 net.cpp:434] pool5 <- conv5_3_relu5_3_0_split_0
I0107 17:10:36.389567 173020 net.cpp:408] pool5 -> pool5
I0107 17:10:36.389636 173020 net.cpp:150] Setting up pool5
I0107 17:10:36.389658 173020 net.cpp:157] Top shape: 1 512 7 7 (25088)
I0107 17:10:36.389664 173020 net.cpp:165] Memory required for data: 164878336
I0107 17:10:36.389669 173020 layer_factory.hpp:77] Creating layer fc6_conv
I0107 17:10:36.389679 173020 net.cpp:100] Creating Layer fc6_conv
I0107 17:10:36.389685 173020 net.cpp:434] fc6_conv <- pool5
I0107 17:10:36.389696 173020 net.cpp:408] fc6_conv -> fc6_conv
I0107 17:10:36.724795 173020 net.cpp:150] Setting up fc6_conv
I0107 17:10:36.724861 173020 net.cpp:157] Top shape: 1 4096 1 1 (4096)
I0107 17:10:36.724865 173020 net.cpp:165] Memory required for data: 164894720
I0107 17:10:36.724876 173020 layer_factory.hpp:77] Creating layer relu6
I0107 17:10:36.724889 173020 net.cpp:100] Creating Layer relu6
I0107 17:10:36.724895 173020 net.cpp:434] relu6 <- fc6_conv
I0107 17:10:36.724903 173020 net.cpp:395] relu6 -> fc6_conv (in-place)
I0107 17:10:36.724912 173020 net.cpp:150] Setting up relu6
I0107 17:10:36.724917 173020 net.cpp:157] Top shape: 1 4096 1 1 (4096)
I0107 17:10:36.724921 173020 net.cpp:165] Memory required for data: 164911104
I0107 17:10:36.724925 173020 layer_factory.hpp:77] Creating layer drop6
I0107 17:10:36.724932 173020 net.cpp:100] Creating Layer drop6
I0107 17:10:36.724936 173020 net.cpp:434] drop6 <- fc6_conv
I0107 17:10:36.724943 173020 net.cpp:395] drop6 -> fc6_conv (in-place)
I0107 17:10:36.724977 173020 net.cpp:150] Setting up drop6
I0107 17:10:36.724983 173020 net.cpp:157] Top shape: 1 4096 1 1 (4096)
I0107 17:10:36.724987 173020 net.cpp:165] Memory required for data: 164927488
I0107 17:10:36.724990 173020 layer_factory.hpp:77] Creating layer fc7_conv
I0107 17:10:36.725001 173020 net.cpp:100] Creating Layer fc7_conv
I0107 17:10:36.725006 173020 net.cpp:434] fc7_conv <- fc6_conv
I0107 17:10:36.725013 173020 net.cpp:408] fc7_conv -> fc7_conv
I0107 17:10:36.793372 173020 net.cpp:150] Setting up fc7_conv
I0107 17:10:36.793423 173020 net.cpp:157] Top shape: 1 4096 1 1 (4096)
I0107 17:10:36.793428 173020 net.cpp:165] Memory required for data: 164943872
I0107 17:10:36.793438 173020 layer_factory.hpp:77] Creating layer relu7
I0107 17:10:36.793449 173020 net.cpp:100] Creating Layer relu7
I0107 17:10:36.793454 173020 net.cpp:434] relu7 <- fc7_conv
I0107 17:10:36.793462 173020 net.cpp:395] relu7 -> fc7_conv (in-place)
I0107 17:10:36.793470 173020 net.cpp:150] Setting up relu7
I0107 17:10:36.793474 173020 net.cpp:157] Top shape: 1 4096 1 1 (4096)
I0107 17:10:36.793478 173020 net.cpp:165] Memory required for data: 164960256
I0107 17:10:36.793481 173020 layer_factory.hpp:77] Creating layer drop7
I0107 17:10:36.793491 173020 net.cpp:100] Creating Layer drop7
I0107 17:10:36.793495 173020 net.cpp:434] drop7 <- fc7_conv
I0107 17:10:36.793500 173020 net.cpp:395] drop7 -> fc7_conv (in-place)
I0107 17:10:36.793532 173020 net.cpp:150] Setting up drop7
I0107 17:10:36.793539 173020 net.cpp:157] Top shape: 1 4096 1 1 (4096)
I0107 17:10:36.793542 173020 net.cpp:165] Memory required for data: 164976640
I0107 17:10:36.793561 173020 layer_factory.hpp:77] Creating layer rand_concat
I0107 17:10:36.793575 173020 net.cpp:100] Creating Layer rand_concat
I0107 17:10:36.793579 173020 net.cpp:434] rand_concat <- conv1_2_relu1_2_0_split_1
I0107 17:10:36.793584 173020 net.cpp:434] rand_concat <- conv2_2_relu2_2_0_split_1
I0107 17:10:36.793589 173020 net.cpp:434] rand_concat <- conv3_3_relu3_3_0_split_1
I0107 17:10:36.793594 173020 net.cpp:434] rand_concat <- conv4_3_relu4_3_0_split_1
I0107 17:10:36.793598 173020 net.cpp:434] rand_concat <- conv5_3_relu5_3_0_split_1
I0107 17:10:36.793602 173020 net.cpp:434] rand_concat <- fc7_conv
I0107 17:10:36.793606 173020 net.cpp:434] rand_concat <- pixels
I0107 17:10:36.793635 173020 net.cpp:408] rand_concat -> fc5
I0107 17:10:36.793706 173020 net.cpp:150] Setting up rand_concat
I0107 17:10:36.793722 173020 net.cpp:157] Top shape: 50176 5568 (279379968)
I0107 17:10:36.793726 173020 net.cpp:165] Memory required for data: 1282496512
I0107 17:10:36.793741 173020 layer_factory.hpp:77] Creating layer fc6_new
I0107 17:10:36.793820 173020 net.cpp:100] Creating Layer fc6_new
I0107 17:10:36.793826 173020 net.cpp:434] fc6_new <- fc5
I0107 17:10:36.793834 173020 net.cpp:408] fc6_new -> fc6_new
I0107 17:10:37.096511 173020 net.cpp:150] Setting up fc6_new
I0107 17:10:37.096560 173020 net.cpp:157] Top shape: 50176 4096 (205520896)
I0107 17:10:37.096565 173020 net.cpp:165] Memory required for data: 2104580096
I0107 17:10:37.096576 173020 layer_factory.hpp:77] Creating layer relu6_new
I0107 17:10:37.096588 173020 net.cpp:100] Creating Layer relu6_new
I0107 17:10:37.096595 173020 net.cpp:434] relu6_new <- fc6_new
I0107 17:10:37.096603 173020 net.cpp:395] relu6_new -> fc6_new (in-place)
I0107 17:10:37.096616 173020 net.cpp:150] Setting up relu6_new
I0107 17:10:37.096621 173020 net.cpp:157] Top shape: 50176 4096 (205520896)
I0107 17:10:37.096626 173020 net.cpp:165] Memory required for data: 2926663680
I0107 17:10:37.096630 173020 layer_factory.hpp:77] Creating layer drop6_new
I0107 17:10:37.096639 173020 net.cpp:100] Creating Layer drop6_new
I0107 17:10:37.096644 173020 net.cpp:434] drop6_new <- fc6_new
I0107 17:10:37.096650 173020 net.cpp:395] drop6_new -> fc6_new (in-place)
I0107 17:10:37.096689 173020 net.cpp:150] Setting up drop6_new
I0107 17:10:37.096698 173020 net.cpp:157] Top shape: 50176 4096 (205520896)
I0107 17:10:37.096704 173020 net.cpp:165] Memory required for data: 3748747264
I0107 17:10:37.096709 173020 layer_factory.hpp:77] Creating layer fc7_new
I0107 17:10:37.096717 173020 net.cpp:100] Creating Layer fc7_new
I0107 17:10:37.096722 173020 net.cpp:434] fc7_new <- fc6_new
I0107 17:10:37.096730 173020 net.cpp:408] fc7_new -> fc7_new
I0107 17:10:37.348932 173020 net.cpp:150] Setting up fc7_new
I0107 17:10:37.348978 173020 net.cpp:157] Top shape: 50176 4096 (205520896)
I0107 17:10:37.348981 173020 net.cpp:165] Memory required for data: 4570830848
I0107 17:10:37.349004 173020 layer_factory.hpp:77] Creating layer relu7_new
I0107 17:10:37.349015 173020 net.cpp:100] Creating Layer relu7_new
I0107 17:10:37.349020 173020 net.cpp:434] relu7_new <- fc7_new
I0107 17:10:37.349032 173020 net.cpp:395] relu7_new -> fc7_new (in-place)
I0107 17:10:37.349041 173020 net.cpp:150] Setting up relu7_new
I0107 17:10:37.349046 173020 net.cpp:157] Top shape: 50176 4096 (205520896)
I0107 17:10:37.349050 173020 net.cpp:165] Memory required for data: 5392914432
I0107 17:10:37.349053 173020 layer_factory.hpp:77] Creating layer drop7_new
I0107 17:10:37.349061 173020 net.cpp:100] Creating Layer drop7_new
I0107 17:10:37.349063 173020 net.cpp:434] drop7_new <- fc7_new
I0107 17:10:37.349068 173020 net.cpp:395] drop7_new -> fc7_new (in-place)
I0107 17:10:37.349099 173020 net.cpp:150] Setting up drop7_new
I0107 17:10:37.349105 173020 net.cpp:157] Top shape: 50176 4096 (205520896)
I0107 17:10:37.349108 173020 net.cpp:165] Memory required for data: 6214998016
I0107 17:10:37.349112 173020 layer_factory.hpp:77] Creating layer cls_score_new
I0107 17:10:37.349123 173020 net.cpp:100] Creating Layer cls_score_new
I0107 17:10:37.349128 173020 net.cpp:434] cls_score_new <- fc7_new
I0107 17:10:37.349133 173020 net.cpp:408] cls_score_new -> fc8_new
I0107 17:10:37.349472 173020 net.cpp:150] Setting up cls_score_new
I0107 17:10:37.349479 173020 net.cpp:157] Top shape: 50176 3 (150528)
I0107 17:10:37.349483 173020 net.cpp:165] Memory required for data: 6215600128
I0107 17:10:37.349488 173020 layer_factory.hpp:77] Creating layer loss_cls
I0107 17:10:37.349495 173020 net.cpp:100] Creating Layer loss_cls
I0107 17:10:37.349499 173020 net.cpp:434] loss_cls <- fc8_new
I0107 17:10:37.349503 173020 net.cpp:434] loss_cls <- labels
I0107 17:10:37.349509 173020 net.cpp:408] loss_cls -> loss_cls
…
