…
I0110 16:26:29.268497 98229 upgrade_proto.cpp:69] Successfully upgraded file specified using deprecated input fields.
W0110 16:26:29.268502 98229 upgrade_proto.cpp:71] Note that future Caffe releases will only support input layers and not input fields.
I0110 16:26:29.268797 98229 net.cpp:58] Initializing net from parameters: 
name: "VGG16_SemanticSegmentation_MLP"
state {
  phase: TRAIN
}
layer {
  name: "input"
  type: "Input"
  top: "data"
  top: "pixels"
  top: "labels"
  input_param {
    shape {
      dim: 1
      dim: 3
      dim: 224
      dim: 224
    }
    shape {
      dim: 50176
      dim: 3
    }
    shape {
      dim: 50176
      dim: 1
    }
  }
}
layer {
  name: "conv1_1"
  type: "Convolution"
  bottom: "data"
  top: "conv1_1"
  param {
    lr_mult: 1
    decay_mult: 1
  }
  param {
    lr_mult: 2
    decay_mult: 0
  }
  convolution_param {
    num_output: 64
    pad: 1
    kernel_size: 3
  }
}
layer {
  name: "relu1_1"
  type: "ReLU"
  bottom: "conv1_1"
  top: "conv1_1"
}
layer {
  name: "conv1_2"
  type: "Convolution"
  bottom: "conv1_1"
  top: "conv1_2"
  param {
    lr_mult: 1
    decay_mult: 1
  }
  param {
    lr_mult: 2
    decay_mult: 0
  }
  convolution_param {
    num_output: 64
    pad: 1
    kernel_size: 3
  }
}
layer {
  name: "relu1_2"
  type: "ReLU"
  bottom: "conv1_2"
  top: "conv1_2"
}
layer {
  name: "pool1"
  type: "Pooling"
  bottom: "conv1_2"
  top: "pool1"
  pooling_param {
    pool: MAX
    kernel_size: 2
    stride: 2
  }
}
layer {
  name: "conv2_1"
  type: "Convolution"
  bottom: "pool1"
  top: "conv2_1"
  param {
    lr_mult: 1
    decay_mult: 1
  }
  param {
    lr_mult: 2
    decay_mult: 0
  }
  convolution_param {
    num_output: 128
    pad: 1
    kernel_size: 3
  }
}
layer {
  name: "relu2_1"
  type: "ReLU"
  bottom: "conv2_1"
  top: "conv2_1"
}
layer {
  name: "conv2_2"
  type: "Convolution"
  bottom: "conv2_1"
  top: "conv2_2"
  param {
    lr_mult: 1
    decay_mult: 1
  }
  param {
    lr_mult: 2
    decay_mult: 0
  }
  convolution_param {
    num_output: 128
    pad: 1
    kernel_size: 3
  }
}
layer {
  name: "relu2_2"
  type: "ReLU"
  bottom: "conv2_2"
  top: "conv2_2"
}
layer {
  name: "pool2"
  type: "Pooling"
  bottom: "conv2_2"
  top: "pool2"
  pooling_param {
    pool: MAX
    kernel_size: 2
    stride: 2
  }
}
layer {
  name: "conv3_1"
  type: "Convolution"
  bottom: "pool2"
  top: "conv3_1"
  param {
    lr_mult: 1
    decay_mult: 1
  }
  param {
    lr_mult: 2
    decay_mult: 0
  }
  convolution_param {
    num_output: 256
    pad: 1
    kernel_size: 3
  }
}
layer {
  name: "relu3_1"
  type: "ReLU"
  bottom: "conv3_1"
  top: "conv3_1"
}
layer {
  name: "conv3_2"
  type: "Convolution"
  bottom: "conv3_1"
  top: "conv3_2"
  param {
    lr_mult: 1
    decay_mult: 1
  }
  param {
    lr_mult: 2
    decay_mult: 0
  }
  convolution_param {
    num_output: 256
    pad: 1
    kernel_size: 3
  }
}
layer {
  name: "relu3_2"
  type: "ReLU"
  bottom: "conv3_2"
  top: "conv3_2"
}
layer {
  name: "conv3_3"
  type: "Convolution"
  bottom: "conv3_2"
  top: "conv3_3"
  param {
    lr_mult: 1
    decay_mult: 1
  }
  param {
    lr_mult: 2
    decay_mult: 0
  }
  convolution_param {
    num_output: 256
    pad: 1
    kernel_size: 3
  }
}
layer {
  name: "relu3_3"
  type: "ReLU"
  bottom: "conv3_3"
  top: "conv3_3"
}
layer {
  name: "pool3"
  type: "Pooling"
  bottom: "conv3_3"
  top: "pool3"
  pooling_param {
    pool: MAX
    kernel_size: 2
    stride: 2
  }
}
layer {
  name: "conv4_1"
  type: "Convolution"
  bottom: "pool3"
  top: "conv4_1"
  param {
    lr_mult: 1
    decay_mult: 1
  }
  param {
    lr_mult: 2
    decay_mult: 0
  }
  convolution_param {
    num_output: 512
    pad: 1
    kernel_size: 3
  }
}
layer {
  name: "relu4_1"
  type: "ReLU"
  bottom: "conv4_1"
  top: "conv4_1"
}
layer {
  name: "conv4_2"
  type: "Convolution"
  bottom: "conv4_1"
  top: "conv4_2"
  param {
    lr_mult: 1
    decay_mult: 1
  }
  param {
    lr_mult: 2
    decay_mult: 0
  }
  convolution_param {
    num_output: 512
    pad: 1
    kernel_size: 3
  }
}
layer {
  name: "relu4_2"
  type: "ReLU"
  bottom: "conv4_2"
  top: "conv4_2"
}
layer {
  name: "conv4_3"
  type: "Convolution"
  bottom: "conv4_2"
  top: "conv4_3"
  param {
    lr_mult: 1
    decay_mult: 1
  }
  param {
    lr_mult: 2
    decay_mult: 0
  }
  convolution_param {
    num_output: 512
    pad: 1
    kernel_size: 3
  }
}
layer {
  name: "relu4_3"
  type: "ReLU"
  bottom: "conv4_3"
  top: "conv4_3"
}
layer {
  name: "pool4"
  type: "Pooling"
  bottom: "conv4_3"
  top: "pool4"
  pooling_param {
    pool: MAX
    kernel_size: 2
    stride: 2
  }
}
layer {
  name: "conv5_1"
  type: "Convolution"
  bottom: "pool4"
  top: "conv5_1"
  param {
    lr_mult: 1
    decay_mult: 1
  }
  param {
    lr_mult: 2
    decay_mult: 0
  }
  convolution_param {
    num_output: 512
    pad: 1
    kernel_size: 3
  }
}
layer {
  name: "relu5_1"
  type: "ReLU"
  bottom: "conv5_1"
  top: "conv5_1"
}
layer {
  name: "conv5_2"
  type: "Convolution"
  bottom: "conv5_1"
  top: "conv5_2"
  param {
    lr_mult: 1
    decay_mult: 1
  }
  param {
    lr_mult: 2
    decay_mult: 0
  }
  convolution_param {
    num_output: 512
    pad: 1
    kernel_size: 3
  }
}
layer {
  name: "relu5_2"
  type: "ReLU"
  bottom: "conv5_2"
  top: "conv5_2"
}
layer {
  name: "conv5_3"
  type: "Convolution"
  bottom: "conv5_2"
  top: "conv5_3"
  param {
    lr_mult: 1
    decay_mult: 1
  }
  param {
    lr_mult: 2
    decay_mult: 0
  }
  convolution_param {
    num_output: 512
    pad: 1
    kernel_size: 3
  }
}
layer {
  name: "relu5_3"
  type: "ReLU"
  bottom: "conv5_3"
  top: "conv5_3"
}
layer {
  name: "pool5"
  type: "Pooling"
  bottom: "conv5_3"
  top: "pool5"
  pooling_param {
    pool: MAX
    kernel_size: 2
    stride: 2
  }
}
layer {
  name: "fc6_conv"
  type: "Convolution"
  bottom: "pool5"
  top: "fc6_conv"
  convolution_param {
    num_output: 4096
    kernel_size: 7
  }
}
layer {
  name: "relu6"
  type: "ReLU"
  bottom: "fc6_conv"
  top: "fc6_conv"
}
layer {
  name: "drop6"
  type: "Dropout"
  bottom: "fc6_conv"
  top: "fc6_conv"
  dropout_param {
    dropout_ratio: 0.5
  }
}
layer {
  name: "fc7_conv"
  type: "Convolution"
  bottom: "fc6_conv"
  top: "fc7_conv"
  convolution_param {
    num_output: 4096
    kernel_size: 1
  }
}
layer {
  name: "relu7"
  type: "ReLU"
  bottom: "fc7_conv"
  top: "fc7_conv"
}
layer {
  name: "drop7"
  type: "Dropout"
  bottom: "fc7_conv"
  top: "fc7_conv"
  dropout_param {
    dropout_ratio: 0.5
  }
}
layer {
  name: "rand_concat"
  type: "RandBI"
  bottom: "conv1_2"
  bottom: "conv2_2"
  bottom: "conv3_3"
  bottom: "conv4_3"
  bottom: "conv5_3"
  bottom: "fc7_conv"
  bottom: "pixels"
  top: "fc5"
  rand_comp_param {
    compression_rate: 1
    compression_rate: 2
    compression_rate: 4
    compression_rate: 8
    compression_rate: 16
    compression_rate: 224
    pad: true
  }
}
layer {
  name: "fc6_new"
  type: "InnerProduct"
  bottom: "fc5"
  top: "fc6_new"
  param {
    lr_mult: 1
    decay_mult: 1
  }
  param {
    lr_mult: 2
    decay_mult: 0
  }
  inner_product_param {
    num_output: 4096
    weight_filler {
      type: "gaussian"
      std: 0.001
    }
    bias_filler {
      type: "constant"
      value: 0
    }
  }
}
layer {
  name: "relu6_new"
  type: "ReLU"
  bottom: "fc6_new"
  top: "fc6_new"
}
layer {
  name: "drop6_new"
  type: "Dropout"
  bottom: "fc6_new"
  top: "fc6_new"
  dropout_param {
    dropout_ratio: 0.5
  }
}
layer {
  name: "fc7_new"
  type: "InnerProduct"
  bottom: "fc6_new"
  top: "fc7_new"
  param {
    lr_mult: 1
    decay_mult: 1
  }
  param {
    lr_mult: 2
    decay_mult: 0
  }
  inner_product_param {
    num_output: 4096
    weight_filler {
      type: "gaussian"
      std: 0.001
    }
    bias_filler {
      type: "constant"
      value: 0
    }
  }
}
layer {
  name: "relu7_new"
  type: "ReLU"
  bottom: "fc7_new"
  top: "fc7_new"
}
layer {
  name: "drop7_new"
  type: "Dropout"
  bottom: "fc7_new"
  top: "fc7_new"
  dropout_param {
    dropout_ratio: 0.5
  }
}
layer {
  name: "cls_score_new"
  type: "InnerProduct"
  bottom: "fc7_new"
  top: "fc8_new"
  param {
    lr_mult: 1
    decay_mult: 1
  }
  param {
    lr_mult: 2
    decay_mult: 0
  }
  inner_product_param {
    num_output: 3
    weight_filler {
      type: "gaussian"
      std: 0.001
    }
    bias_filler {
      type: "constant"
      value: 0
    }
  }
}
layer {
  name: "loss_cls"
  type: "SoftmaxWithLoss"
  bottom: "fc8_new"
  bottom: "labels"
  top: "loss_cls"
}
I0110 16:26:29.268982 98229 layer_factory.hpp:77] Creating layer input
I0110 16:26:29.268996 98229 net.cpp:100] Creating Layer input
I0110 16:26:29.269002 98229 net.cpp:408] input -> data
I0110 16:26:29.269014 98229 net.cpp:408] input -> pixels
I0110 16:26:29.269022 98229 net.cpp:408] input -> labels
I0110 16:26:29.286437 98229 net.cpp:150] Setting up input
I0110 16:26:29.286478 98229 net.cpp:157] Top shape: 1 3 224 224 (150528)
I0110 16:26:29.286485 98229 net.cpp:157] Top shape: 50176 3 (150528)
I0110 16:26:29.286490 98229 net.cpp:157] Top shape: 50176 1 (50176)
I0110 16:26:29.286494 98229 net.cpp:165] Memory required for data: 1404928
I0110 16:26:29.286500 98229 layer_factory.hpp:77] Creating layer conv1_1
I0110 16:26:29.286520 98229 net.cpp:100] Creating Layer conv1_1
I0110 16:26:29.286525 98229 net.cpp:434] conv1_1 <- data
I0110 16:26:29.286532 98229 net.cpp:408] conv1_1 -> conv1_1
I0110 16:26:29.289607 98229 net.cpp:150] Setting up conv1_1
I0110 16:26:29.289628 98229 net.cpp:157] Top shape: 1 64 224 224 (3211264)
I0110 16:26:29.289633 98229 net.cpp:165] Memory required for data: 14249984
I0110 16:26:29.289644 98229 layer_factory.hpp:77] Creating layer relu1_1
I0110 16:26:29.289657 98229 net.cpp:100] Creating Layer relu1_1
I0110 16:26:29.289664 98229 net.cpp:434] relu1_1 <- conv1_1
I0110 16:26:29.289669 98229 net.cpp:395] relu1_1 -> conv1_1 (in-place)
I0110 16:26:29.289677 98229 net.cpp:150] Setting up relu1_1
I0110 16:26:29.289682 98229 net.cpp:157] Top shape: 1 64 224 224 (3211264)
I0110 16:26:29.289686 98229 net.cpp:165] Memory required for data: 27095040
I0110 16:26:29.289690 98229 layer_factory.hpp:77] Creating layer conv1_2
I0110 16:26:29.289700 98229 net.cpp:100] Creating Layer conv1_2
I0110 16:26:29.289705 98229 net.cpp:434] conv1_2 <- conv1_1
I0110 16:26:29.289714 98229 net.cpp:408] conv1_2 -> conv1_2
I0110 16:26:29.290115 98229 net.cpp:150] Setting up conv1_2
I0110 16:26:29.290127 98229 net.cpp:157] Top shape: 1 64 224 224 (3211264)
I0110 16:26:29.290130 98229 net.cpp:165] Memory required for data: 39940096
I0110 16:26:29.290138 98229 layer_factory.hpp:77] Creating layer relu1_2
I0110 16:26:29.290149 98229 net.cpp:100] Creating Layer relu1_2
I0110 16:26:29.290153 98229 net.cpp:434] relu1_2 <- conv1_2
I0110 16:26:29.290159 98229 net.cpp:395] relu1_2 -> conv1_2 (in-place)
I0110 16:26:29.290165 98229 net.cpp:150] Setting up relu1_2
I0110 16:26:29.290171 98229 net.cpp:157] Top shape: 1 64 224 224 (3211264)
I0110 16:26:29.290174 98229 net.cpp:165] Memory required for data: 52785152
I0110 16:26:29.290179 98229 layer_factory.hpp:77] Creating layer conv1_2_relu1_2_0_split
I0110 16:26:29.290189 98229 net.cpp:100] Creating Layer conv1_2_relu1_2_0_split
I0110 16:26:29.290201 98229 net.cpp:434] conv1_2_relu1_2_0_split <- conv1_2
I0110 16:26:29.290207 98229 net.cpp:408] conv1_2_relu1_2_0_split -> conv1_2_relu1_2_0_split_0
I0110 16:26:29.290215 98229 net.cpp:408] conv1_2_relu1_2_0_split -> conv1_2_relu1_2_0_split_1
I0110 16:26:29.290269 98229 net.cpp:150] Setting up conv1_2_relu1_2_0_split
I0110 16:26:29.290278 98229 net.cpp:157] Top shape: 1 64 224 224 (3211264)
I0110 16:26:29.290284 98229 net.cpp:157] Top shape: 1 64 224 224 (3211264)
I0110 16:26:29.290288 98229 net.cpp:165] Memory required for data: 78475264
I0110 16:26:29.290292 98229 layer_factory.hpp:77] Creating layer pool1
I0110 16:26:29.290300 98229 net.cpp:100] Creating Layer pool1
I0110 16:26:29.290304 98229 net.cpp:434] pool1 <- conv1_2_relu1_2_0_split_0
I0110 16:26:29.290310 98229 net.cpp:408] pool1 -> pool1
I0110 16:26:29.290362 98229 net.cpp:150] Setting up pool1
I0110 16:26:29.290369 98229 net.cpp:157] Top shape: 1 64 112 112 (802816)
I0110 16:26:29.290374 98229 net.cpp:165] Memory required for data: 81686528
I0110 16:26:29.290377 98229 layer_factory.hpp:77] Creating layer conv2_1
I0110 16:26:29.290387 98229 net.cpp:100] Creating Layer conv2_1
I0110 16:26:29.290392 98229 net.cpp:434] conv2_1 <- pool1
I0110 16:26:29.290400 98229 net.cpp:408] conv2_1 -> conv2_1
I0110 16:26:29.293401 98229 net.cpp:150] Setting up conv2_1
I0110 16:26:29.293421 98229 net.cpp:157] Top shape: 1 128 112 112 (1605632)
I0110 16:26:29.293426 98229 net.cpp:165] Memory required for data: 88109056
I0110 16:26:29.293437 98229 layer_factory.hpp:77] Creating layer relu2_1
I0110 16:26:29.293447 98229 net.cpp:100] Creating Layer relu2_1
I0110 16:26:29.293453 98229 net.cpp:434] relu2_1 <- conv2_1
I0110 16:26:29.293459 98229 net.cpp:395] relu2_1 -> conv2_1 (in-place)
I0110 16:26:29.293467 98229 net.cpp:150] Setting up relu2_1
I0110 16:26:29.293473 98229 net.cpp:157] Top shape: 1 128 112 112 (1605632)
I0110 16:26:29.293476 98229 net.cpp:165] Memory required for data: 94531584
I0110 16:26:29.293480 98229 layer_factory.hpp:77] Creating layer conv2_2
I0110 16:26:29.293491 98229 net.cpp:100] Creating Layer conv2_2
I0110 16:26:29.293496 98229 net.cpp:434] conv2_2 <- conv2_1
I0110 16:26:29.293503 98229 net.cpp:408] conv2_2 -> conv2_2
I0110 16:26:29.293956 98229 net.cpp:150] Setting up conv2_2
I0110 16:26:29.293968 98229 net.cpp:157] Top shape: 1 128 112 112 (1605632)
I0110 16:26:29.293973 98229 net.cpp:165] Memory required for data: 100954112
I0110 16:26:29.293980 98229 layer_factory.hpp:77] Creating layer relu2_2
I0110 16:26:29.293987 98229 net.cpp:100] Creating Layer relu2_2
I0110 16:26:29.293990 98229 net.cpp:434] relu2_2 <- conv2_2
I0110 16:26:29.293996 98229 net.cpp:395] relu2_2 -> conv2_2 (in-place)
I0110 16:26:29.294003 98229 net.cpp:150] Setting up relu2_2
I0110 16:26:29.294008 98229 net.cpp:157] Top shape: 1 128 112 112 (1605632)
I0110 16:26:29.294011 98229 net.cpp:165] Memory required for data: 107376640
I0110 16:26:29.294015 98229 layer_factory.hpp:77] Creating layer conv2_2_relu2_2_0_split
I0110 16:26:29.294024 98229 net.cpp:100] Creating Layer conv2_2_relu2_2_0_split
I0110 16:26:29.294029 98229 net.cpp:434] conv2_2_relu2_2_0_split <- conv2_2
I0110 16:26:29.294034 98229 net.cpp:408] conv2_2_relu2_2_0_split -> conv2_2_relu2_2_0_split_0
I0110 16:26:29.294041 98229 net.cpp:408] conv2_2_relu2_2_0_split -> conv2_2_relu2_2_0_split_1
I0110 16:26:29.294095 98229 net.cpp:150] Setting up conv2_2_relu2_2_0_split
I0110 16:26:29.294106 98229 net.cpp:157] Top shape: 1 128 112 112 (1605632)
I0110 16:26:29.294111 98229 net.cpp:157] Top shape: 1 128 112 112 (1605632)
I0110 16:26:29.294116 98229 net.cpp:165] Memory required for data: 120221696
I0110 16:26:29.294119 98229 layer_factory.hpp:77] Creating layer pool2
I0110 16:26:29.294126 98229 net.cpp:100] Creating Layer pool2
I0110 16:26:29.294131 98229 net.cpp:434] pool2 <- conv2_2_relu2_2_0_split_0
I0110 16:26:29.294137 98229 net.cpp:408] pool2 -> pool2
I0110 16:26:29.294191 98229 net.cpp:150] Setting up pool2
I0110 16:26:29.294199 98229 net.cpp:157] Top shape: 1 128 56 56 (401408)
I0110 16:26:29.294209 98229 net.cpp:165] Memory required for data: 121827328
I0110 16:26:29.294214 98229 layer_factory.hpp:77] Creating layer conv3_1
I0110 16:26:29.294224 98229 net.cpp:100] Creating Layer conv3_1
I0110 16:26:29.294229 98229 net.cpp:434] conv3_1 <- pool2
I0110 16:26:29.294239 98229 net.cpp:408] conv3_1 -> conv3_1
I0110 16:26:29.294780 98229 net.cpp:150] Setting up conv3_1
I0110 16:26:29.294790 98229 net.cpp:157] Top shape: 1 256 56 56 (802816)
I0110 16:26:29.294795 98229 net.cpp:165] Memory required for data: 125038592
I0110 16:26:29.294806 98229 layer_factory.hpp:77] Creating layer relu3_1
I0110 16:26:29.294812 98229 net.cpp:100] Creating Layer relu3_1
I0110 16:26:29.294817 98229 net.cpp:434] relu3_1 <- conv3_1
I0110 16:26:29.294826 98229 net.cpp:395] relu3_1 -> conv3_1 (in-place)
I0110 16:26:29.294831 98229 net.cpp:150] Setting up relu3_1
I0110 16:26:29.294837 98229 net.cpp:157] Top shape: 1 256 56 56 (802816)
I0110 16:26:29.294842 98229 net.cpp:165] Memory required for data: 128249856
I0110 16:26:29.294845 98229 layer_factory.hpp:77] Creating layer conv3_2
I0110 16:26:29.294852 98229 net.cpp:100] Creating Layer conv3_2
I0110 16:26:29.294857 98229 net.cpp:434] conv3_2 <- conv3_1
I0110 16:26:29.294867 98229 net.cpp:408] conv3_2 -> conv3_2
I0110 16:26:29.297093 98229 net.cpp:150] Setting up conv3_2
I0110 16:26:29.297111 98229 net.cpp:157] Top shape: 1 256 56 56 (802816)
I0110 16:26:29.297114 98229 net.cpp:165] Memory required for data: 131461120
I0110 16:26:29.297122 98229 layer_factory.hpp:77] Creating layer relu3_2
I0110 16:26:29.297133 98229 net.cpp:100] Creating Layer relu3_2
I0110 16:26:29.297138 98229 net.cpp:434] relu3_2 <- conv3_2
I0110 16:26:29.297144 98229 net.cpp:395] relu3_2 -> conv3_2 (in-place)
I0110 16:26:29.297152 98229 net.cpp:150] Setting up relu3_2
I0110 16:26:29.297158 98229 net.cpp:157] Top shape: 1 256 56 56 (802816)
I0110 16:26:29.297161 98229 net.cpp:165] Memory required for data: 134672384
I0110 16:26:29.297165 98229 layer_factory.hpp:77] Creating layer conv3_3
I0110 16:26:29.297176 98229 net.cpp:100] Creating Layer conv3_3
I0110 16:26:29.297180 98229 net.cpp:434] conv3_3 <- conv3_2
I0110 16:26:29.297186 98229 net.cpp:408] conv3_3 -> conv3_3
I0110 16:26:29.299383 98229 net.cpp:150] Setting up conv3_3
I0110 16:26:29.299399 98229 net.cpp:157] Top shape: 1 256 56 56 (802816)
I0110 16:26:29.299403 98229 net.cpp:165] Memory required for data: 137883648
I0110 16:26:29.299410 98229 layer_factory.hpp:77] Creating layer relu3_3
I0110 16:26:29.299417 98229 net.cpp:100] Creating Layer relu3_3
I0110 16:26:29.299425 98229 net.cpp:434] relu3_3 <- conv3_3
I0110 16:26:29.299432 98229 net.cpp:395] relu3_3 -> conv3_3 (in-place)
I0110 16:26:29.299438 98229 net.cpp:150] Setting up relu3_3
I0110 16:26:29.299443 98229 net.cpp:157] Top shape: 1 256 56 56 (802816)
I0110 16:26:29.299448 98229 net.cpp:165] Memory required for data: 141094912
I0110 16:26:29.299451 98229 layer_factory.hpp:77] Creating layer conv3_3_relu3_3_0_split
I0110 16:26:29.299458 98229 net.cpp:100] Creating Layer conv3_3_relu3_3_0_split
I0110 16:26:29.299461 98229 net.cpp:434] conv3_3_relu3_3_0_split <- conv3_3
I0110 16:26:29.299471 98229 net.cpp:408] conv3_3_relu3_3_0_split -> conv3_3_relu3_3_0_split_0
I0110 16:26:29.299484 98229 net.cpp:408] conv3_3_relu3_3_0_split -> conv3_3_relu3_3_0_split_1
I0110 16:26:29.299540 98229 net.cpp:150] Setting up conv3_3_relu3_3_0_split
I0110 16:26:29.299547 98229 net.cpp:157] Top shape: 1 256 56 56 (802816)
I0110 16:26:29.299553 98229 net.cpp:157] Top shape: 1 256 56 56 (802816)
I0110 16:26:29.299557 98229 net.cpp:165] Memory required for data: 147517440
I0110 16:26:29.299561 98229 layer_factory.hpp:77] Creating layer pool3
I0110 16:26:29.299573 98229 net.cpp:100] Creating Layer pool3
I0110 16:26:29.299578 98229 net.cpp:434] pool3 <- conv3_3_relu3_3_0_split_0
I0110 16:26:29.299584 98229 net.cpp:408] pool3 -> pool3
I0110 16:26:29.299636 98229 net.cpp:150] Setting up pool3
I0110 16:26:29.299644 98229 net.cpp:157] Top shape: 1 256 28 28 (200704)
I0110 16:26:29.299649 98229 net.cpp:165] Memory required for data: 148320256
I0110 16:26:29.299659 98229 layer_factory.hpp:77] Creating layer conv4_1
I0110 16:26:29.299669 98229 net.cpp:100] Creating Layer conv4_1
I0110 16:26:29.299675 98229 net.cpp:434] conv4_1 <- pool3
I0110 16:26:29.299684 98229 net.cpp:408] conv4_1 -> conv4_1
I0110 16:26:29.304709 98229 net.cpp:150] Setting up conv4_1
I0110 16:26:29.304744 98229 net.cpp:157] Top shape: 1 512 28 28 (401408)
I0110 16:26:29.304749 98229 net.cpp:165] Memory required for data: 149925888
I0110 16:26:29.304759 98229 layer_factory.hpp:77] Creating layer relu4_1
I0110 16:26:29.304767 98229 net.cpp:100] Creating Layer relu4_1
I0110 16:26:29.304772 98229 net.cpp:434] relu4_1 <- conv4_1
I0110 16:26:29.304778 98229 net.cpp:395] relu4_1 -> conv4_1 (in-place)
I0110 16:26:29.304787 98229 net.cpp:150] Setting up relu4_1
I0110 16:26:29.304793 98229 net.cpp:157] Top shape: 1 512 28 28 (401408)
I0110 16:26:29.304797 98229 net.cpp:165] Memory required for data: 151531520
I0110 16:26:29.304800 98229 layer_factory.hpp:77] Creating layer conv4_2
I0110 16:26:29.304813 98229 net.cpp:100] Creating Layer conv4_2
I0110 16:26:29.304818 98229 net.cpp:434] conv4_2 <- conv4_1
I0110 16:26:29.304826 98229 net.cpp:408] conv4_2 -> conv4_2
I0110 16:26:29.311885 98229 net.cpp:150] Setting up conv4_2
I0110 16:26:29.311929 98229 net.cpp:157] Top shape: 1 512 28 28 (401408)
I0110 16:26:29.311934 98229 net.cpp:165] Memory required for data: 153137152
I0110 16:26:29.311949 98229 layer_factory.hpp:77] Creating layer relu4_2
I0110 16:26:29.311959 98229 net.cpp:100] Creating Layer relu4_2
I0110 16:26:29.311964 98229 net.cpp:434] relu4_2 <- conv4_2
I0110 16:26:29.311975 98229 net.cpp:395] relu4_2 -> conv4_2 (in-place)
I0110 16:26:29.311985 98229 net.cpp:150] Setting up relu4_2
I0110 16:26:29.311991 98229 net.cpp:157] Top shape: 1 512 28 28 (401408)
I0110 16:26:29.311995 98229 net.cpp:165] Memory required for data: 154742784
I0110 16:26:29.312000 98229 layer_factory.hpp:77] Creating layer conv4_3
I0110 16:26:29.312011 98229 net.cpp:100] Creating Layer conv4_3
I0110 16:26:29.312016 98229 net.cpp:434] conv4_3 <- conv4_2
I0110 16:26:29.312022 98229 net.cpp:408] conv4_3 -> conv4_3
I0110 16:26:29.319128 98229 net.cpp:150] Setting up conv4_3
I0110 16:26:29.319165 98229 net.cpp:157] Top shape: 1 512 28 28 (401408)
I0110 16:26:29.319170 98229 net.cpp:165] Memory required for data: 156348416
I0110 16:26:29.319180 98229 layer_factory.hpp:77] Creating layer relu4_3
I0110 16:26:29.319191 98229 net.cpp:100] Creating Layer relu4_3
I0110 16:26:29.319196 98229 net.cpp:434] relu4_3 <- conv4_3
I0110 16:26:29.319207 98229 net.cpp:395] relu4_3 -> conv4_3 (in-place)
I0110 16:26:29.319218 98229 net.cpp:150] Setting up relu4_3
I0110 16:26:29.319223 98229 net.cpp:157] Top shape: 1 512 28 28 (401408)
I0110 16:26:29.319227 98229 net.cpp:165] Memory required for data: 157954048
I0110 16:26:29.319231 98229 layer_factory.hpp:77] Creating layer conv4_3_relu4_3_0_split
I0110 16:26:29.319239 98229 net.cpp:100] Creating Layer conv4_3_relu4_3_0_split
I0110 16:26:29.319243 98229 net.cpp:434] conv4_3_relu4_3_0_split <- conv4_3
I0110 16:26:29.319252 98229 net.cpp:408] conv4_3_relu4_3_0_split -> conv4_3_relu4_3_0_split_0
I0110 16:26:29.319260 98229 net.cpp:408] conv4_3_relu4_3_0_split -> conv4_3_relu4_3_0_split_1
I0110 16:26:29.319317 98229 net.cpp:150] Setting up conv4_3_relu4_3_0_split
I0110 16:26:29.319325 98229 net.cpp:157] Top shape: 1 512 28 28 (401408)
I0110 16:26:29.319330 98229 net.cpp:157] Top shape: 1 512 28 28 (401408)
I0110 16:26:29.319334 98229 net.cpp:165] Memory required for data: 161165312
I0110 16:26:29.319339 98229 layer_factory.hpp:77] Creating layer pool4
I0110 16:26:29.319346 98229 net.cpp:100] Creating Layer pool4
I0110 16:26:29.319353 98229 net.cpp:434] pool4 <- conv4_3_relu4_3_0_split_0
I0110 16:26:29.319360 98229 net.cpp:408] pool4 -> pool4
I0110 16:26:29.319414 98229 net.cpp:150] Setting up pool4
I0110 16:26:29.319422 98229 net.cpp:157] Top shape: 1 512 14 14 (100352)
I0110 16:26:29.319427 98229 net.cpp:165] Memory required for data: 161566720
I0110 16:26:29.319430 98229 layer_factory.hpp:77] Creating layer conv5_1
I0110 16:26:29.319456 98229 net.cpp:100] Creating Layer conv5_1
I0110 16:26:29.319461 98229 net.cpp:434] conv5_1 <- pool4
I0110 16:26:29.319468 98229 net.cpp:408] conv5_1 -> conv5_1
I0110 16:26:29.326704 98229 net.cpp:150] Setting up conv5_1
I0110 16:26:29.326746 98229 net.cpp:157] Top shape: 1 512 14 14 (100352)
I0110 16:26:29.326751 98229 net.cpp:165] Memory required for data: 161968128
I0110 16:26:29.326761 98229 layer_factory.hpp:77] Creating layer relu5_1
I0110 16:26:29.326771 98229 net.cpp:100] Creating Layer relu5_1
I0110 16:26:29.326777 98229 net.cpp:434] relu5_1 <- conv5_1
I0110 16:26:29.326786 98229 net.cpp:395] relu5_1 -> conv5_1 (in-place)
I0110 16:26:29.326797 98229 net.cpp:150] Setting up relu5_1
I0110 16:26:29.326802 98229 net.cpp:157] Top shape: 1 512 14 14 (100352)
I0110 16:26:29.326807 98229 net.cpp:165] Memory required for data: 162369536
I0110 16:26:29.326810 98229 layer_factory.hpp:77] Creating layer conv5_2
I0110 16:26:29.326819 98229 net.cpp:100] Creating Layer conv5_2
I0110 16:26:29.326823 98229 net.cpp:434] conv5_2 <- conv5_1
I0110 16:26:29.326833 98229 net.cpp:408] conv5_2 -> conv5_2
I0110 16:26:29.334008 98229 net.cpp:150] Setting up conv5_2
I0110 16:26:29.334053 98229 net.cpp:157] Top shape: 1 512 14 14 (100352)
I0110 16:26:29.334059 98229 net.cpp:165] Memory required for data: 162770944
I0110 16:26:29.334067 98229 layer_factory.hpp:77] Creating layer relu5_2
I0110 16:26:29.334087 98229 net.cpp:100] Creating Layer relu5_2
I0110 16:26:29.334095 98229 net.cpp:434] relu5_2 <- conv5_2
I0110 16:26:29.334102 98229 net.cpp:395] relu5_2 -> conv5_2 (in-place)
I0110 16:26:29.334112 98229 net.cpp:150] Setting up relu5_2
I0110 16:26:29.334117 98229 net.cpp:157] Top shape: 1 512 14 14 (100352)
I0110 16:26:29.334121 98229 net.cpp:165] Memory required for data: 163172352
I0110 16:26:29.334125 98229 layer_factory.hpp:77] Creating layer conv5_3
I0110 16:26:29.334137 98229 net.cpp:100] Creating Layer conv5_3
I0110 16:26:29.334142 98229 net.cpp:434] conv5_3 <- conv5_2
I0110 16:26:29.334151 98229 net.cpp:408] conv5_3 -> conv5_3
I0110 16:26:29.341344 98229 net.cpp:150] Setting up conv5_3
I0110 16:26:29.341387 98229 net.cpp:157] Top shape: 1 512 14 14 (100352)
I0110 16:26:29.341392 98229 net.cpp:165] Memory required for data: 163573760
I0110 16:26:29.341403 98229 layer_factory.hpp:77] Creating layer relu5_3
I0110 16:26:29.341413 98229 net.cpp:100] Creating Layer relu5_3
I0110 16:26:29.341419 98229 net.cpp:434] relu5_3 <- conv5_3
I0110 16:26:29.341426 98229 net.cpp:395] relu5_3 -> conv5_3 (in-place)
I0110 16:26:29.341436 98229 net.cpp:150] Setting up relu5_3
I0110 16:26:29.341441 98229 net.cpp:157] Top shape: 1 512 14 14 (100352)
I0110 16:26:29.341446 98229 net.cpp:165] Memory required for data: 163975168
I0110 16:26:29.341450 98229 layer_factory.hpp:77] Creating layer conv5_3_relu5_3_0_split
I0110 16:26:29.341461 98229 net.cpp:100] Creating Layer conv5_3_relu5_3_0_split
I0110 16:26:29.341465 98229 net.cpp:434] conv5_3_relu5_3_0_split <- conv5_3
I0110 16:26:29.341472 98229 net.cpp:408] conv5_3_relu5_3_0_split -> conv5_3_relu5_3_0_split_0
I0110 16:26:29.341480 98229 net.cpp:408] conv5_3_relu5_3_0_split -> conv5_3_relu5_3_0_split_1
I0110 16:26:29.341550 98229 net.cpp:150] Setting up conv5_3_relu5_3_0_split
I0110 16:26:29.341558 98229 net.cpp:157] Top shape: 1 512 14 14 (100352)
I0110 16:26:29.341563 98229 net.cpp:157] Top shape: 1 512 14 14 (100352)
I0110 16:26:29.341567 98229 net.cpp:165] Memory required for data: 164777984
I0110 16:26:29.341572 98229 layer_factory.hpp:77] Creating layer pool5
I0110 16:26:29.341583 98229 net.cpp:100] Creating Layer pool5
I0110 16:26:29.341588 98229 net.cpp:434] pool5 <- conv5_3_relu5_3_0_split_0
I0110 16:26:29.341594 98229 net.cpp:408] pool5 -> pool5
I0110 16:26:29.341652 98229 net.cpp:150] Setting up pool5
I0110 16:26:29.341660 98229 net.cpp:157] Top shape: 1 512 7 7 (25088)
I0110 16:26:29.341665 98229 net.cpp:165] Memory required for data: 164878336
I0110 16:26:29.341668 98229 layer_factory.hpp:77] Creating layer fc6_conv
I0110 16:26:29.341679 98229 net.cpp:100] Creating Layer fc6_conv
I0110 16:26:29.341693 98229 net.cpp:434] fc6_conv <- pool5
I0110 16:26:29.341702 98229 net.cpp:408] fc6_conv -> fc6_conv
I0110 16:26:29.629542 98229 net.cpp:150] Setting up fc6_conv
I0110 16:26:29.629597 98229 net.cpp:157] Top shape: 1 4096 1 1 (4096)
I0110 16:26:29.629602 98229 net.cpp:165] Memory required for data: 164894720
I0110 16:26:29.629612 98229 layer_factory.hpp:77] Creating layer relu6
I0110 16:26:29.629626 98229 net.cpp:100] Creating Layer relu6
I0110 16:26:29.629631 98229 net.cpp:434] relu6 <- fc6_conv
I0110 16:26:29.629637 98229 net.cpp:395] relu6 -> fc6_conv (in-place)
I0110 16:26:29.629648 98229 net.cpp:150] Setting up relu6
I0110 16:26:29.629653 98229 net.cpp:157] Top shape: 1 4096 1 1 (4096)
I0110 16:26:29.629657 98229 net.cpp:165] Memory required for data: 164911104
I0110 16:26:29.629660 98229 layer_factory.hpp:77] Creating layer drop6
I0110 16:26:29.629673 98229 net.cpp:100] Creating Layer drop6
I0110 16:26:29.629676 98229 net.cpp:434] drop6 <- fc6_conv
I0110 16:26:29.629681 98229 net.cpp:395] drop6 -> fc6_conv (in-place)
I0110 16:26:29.629711 98229 net.cpp:150] Setting up drop6
I0110 16:26:29.629719 98229 net.cpp:157] Top shape: 1 4096 1 1 (4096)
I0110 16:26:29.629721 98229 net.cpp:165] Memory required for data: 164927488
I0110 16:26:29.629725 98229 layer_factory.hpp:77] Creating layer fc7_conv
I0110 16:26:29.629736 98229 net.cpp:100] Creating Layer fc7_conv
I0110 16:26:29.629741 98229 net.cpp:434] fc7_conv <- fc6_conv
I0110 16:26:29.629748 98229 net.cpp:408] fc7_conv -> fc7_conv
I0110 16:26:29.679246 98229 net.cpp:150] Setting up fc7_conv
I0110 16:26:29.679296 98229 net.cpp:157] Top shape: 1 4096 1 1 (4096)
I0110 16:26:29.679299 98229 net.cpp:165] Memory required for data: 164943872
I0110 16:26:29.679309 98229 layer_factory.hpp:77] Creating layer relu7
I0110 16:26:29.679320 98229 net.cpp:100] Creating Layer relu7
I0110 16:26:29.679325 98229 net.cpp:434] relu7 <- fc7_conv
I0110 16:26:29.679335 98229 net.cpp:395] relu7 -> fc7_conv (in-place)
I0110 16:26:29.679347 98229 net.cpp:150] Setting up relu7
I0110 16:26:29.679352 98229 net.cpp:157] Top shape: 1 4096 1 1 (4096)
I0110 16:26:29.679354 98229 net.cpp:165] Memory required for data: 164960256
I0110 16:26:29.679358 98229 layer_factory.hpp:77] Creating layer drop7
I0110 16:26:29.679365 98229 net.cpp:100] Creating Layer drop7
I0110 16:26:29.679369 98229 net.cpp:434] drop7 <- fc7_conv
I0110 16:26:29.679376 98229 net.cpp:395] drop7 -> fc7_conv (in-place)
I0110 16:26:29.679410 98229 net.cpp:150] Setting up drop7
I0110 16:26:29.679416 98229 net.cpp:157] Top shape: 1 4096 1 1 (4096)
I0110 16:26:29.679420 98229 net.cpp:165] Memory required for data: 164976640
I0110 16:26:29.679424 98229 layer_factory.hpp:77] Creating layer rand_concat
I0110 16:26:29.679435 98229 net.cpp:100] Creating Layer rand_concat
I0110 16:26:29.679440 98229 net.cpp:434] rand_concat <- conv1_2_relu1_2_0_split_1
I0110 16:26:29.679443 98229 net.cpp:434] rand_concat <- conv2_2_relu2_2_0_split_1
I0110 16:26:29.679448 98229 net.cpp:434] rand_concat <- conv3_3_relu3_3_0_split_1
I0110 16:26:29.679453 98229 net.cpp:434] rand_concat <- conv4_3_relu4_3_0_split_1
I0110 16:26:29.679457 98229 net.cpp:434] rand_concat <- conv5_3_relu5_3_0_split_1
I0110 16:26:29.679461 98229 net.cpp:434] rand_concat <- fc7_conv
I0110 16:26:29.679466 98229 net.cpp:434] rand_concat <- pixels
I0110 16:26:29.679471 98229 net.cpp:408] rand_concat -> fc5
I0110 16:26:29.679505 98229 net.cpp:150] Setting up rand_concat
I0110 16:26:29.679514 98229 net.cpp:157] Top shape: 50176 5568 (279379968)
I0110 16:26:29.679518 98229 net.cpp:165] Memory required for data: 1282496512
I0110 16:26:29.679522 98229 layer_factory.hpp:77] Creating layer fc6_new
I0110 16:26:29.679530 98229 net.cpp:100] Creating Layer fc6_new
I0110 16:26:29.679534 98229 net.cpp:434] fc6_new <- fc5
I0110 16:26:29.679539 98229 net.cpp:408] fc6_new -> fc6_new
I0110 16:26:29.927817 98229 net.cpp:150] Setting up fc6_new
I0110 16:26:29.927865 98229 net.cpp:157] Top shape: 50176 4096 (205520896)
I0110 16:26:29.927870 98229 net.cpp:165] Memory required for data: 2104580096
I0110 16:26:29.927888 98229 layer_factory.hpp:77] Creating layer relu6_new
I0110 16:26:29.927902 98229 net.cpp:100] Creating Layer relu6_new
I0110 16:26:29.927907 98229 net.cpp:434] relu6_new <- fc6_new
I0110 16:26:29.927915 98229 net.cpp:395] relu6_new -> fc6_new (in-place)
I0110 16:26:29.927925 98229 net.cpp:150] Setting up relu6_new
I0110 16:26:29.927930 98229 net.cpp:157] Top shape: 50176 4096 (205520896)
I0110 16:26:29.927933 98229 net.cpp:165] Memory required for data: 2926663680
I0110 16:26:29.927937 98229 layer_factory.hpp:77] Creating layer drop6_new
I0110 16:26:29.927949 98229 net.cpp:100] Creating Layer drop6_new
I0110 16:26:29.927954 98229 net.cpp:434] drop6_new <- fc6_new
I0110 16:26:29.927959 98229 net.cpp:395] drop6_new -> fc6_new (in-place)
I0110 16:26:29.927994 98229 net.cpp:150] Setting up drop6_new
I0110 16:26:29.927999 98229 net.cpp:157] Top shape: 50176 4096 (205520896)
I0110 16:26:29.928004 98229 net.cpp:165] Memory required for data: 3748747264
I0110 16:26:29.928007 98229 layer_factory.hpp:77] Creating layer fc7_new
I0110 16:26:29.928020 98229 net.cpp:100] Creating Layer fc7_new
I0110 16:26:29.928023 98229 net.cpp:434] fc7_new <- fc6_new
I0110 16:26:29.928032 98229 net.cpp:408] fc7_new -> fc7_new
I0110 16:26:30.113752 98229 net.cpp:150] Setting up fc7_new
I0110 16:26:30.113798 98229 net.cpp:157] Top shape: 50176 4096 (205520896)
I0110 16:26:30.113802 98229 net.cpp:165] Memory required for data: 4570830848
I0110 16:26:30.113821 98229 layer_factory.hpp:77] Creating layer relu7_new
I0110 16:26:30.113833 98229 net.cpp:100] Creating Layer relu7_new
I0110 16:26:30.113838 98229 net.cpp:434] relu7_new <- fc7_new
I0110 16:26:30.113845 98229 net.cpp:395] relu7_new -> fc7_new (in-place)
I0110 16:26:30.113855 98229 net.cpp:150] Setting up relu7_new
I0110 16:26:30.113860 98229 net.cpp:157] Top shape: 50176 4096 (205520896)
I0110 16:26:30.113864 98229 net.cpp:165] Memory required for data: 5392914432
I0110 16:26:30.113867 98229 layer_factory.hpp:77] Creating layer drop7_new
I0110 16:26:30.113875 98229 net.cpp:100] Creating Layer drop7_new
I0110 16:26:30.113879 98229 net.cpp:434] drop7_new <- fc7_new
I0110 16:26:30.113883 98229 net.cpp:395] drop7_new -> fc7_new (in-place)
I0110 16:26:30.113919 98229 net.cpp:150] Setting up drop7_new
I0110 16:26:30.113925 98229 net.cpp:157] Top shape: 50176 4096 (205520896)
I0110 16:26:30.113929 98229 net.cpp:165] Memory required for data: 6214998016
I0110 16:26:30.113932 98229 layer_factory.hpp:77] Creating layer cls_score_new
I0110 16:26:30.113940 98229 net.cpp:100] Creating Layer cls_score_new
I0110 16:26:30.113945 98229 net.cpp:434] cls_score_new <- fc7_new
I0110 16:26:30.113951 98229 net.cpp:408] cls_score_new -> fc8_new
I0110 16:26:30.114267 98229 net.cpp:150] Setting up cls_score_new
I0110 16:26:30.114276 98229 net.cpp:157] Top shape: 50176 3 (150528)
I0110 16:26:30.114280 98229 net.cpp:165] Memory required for data: 6215600128
I0110 16:26:30.114286 98229 layer_factory.hpp:77] Creating layer loss_cls
I0110 16:26:30.114292 98229 net.cpp:100] Creating Layer loss_cls
I0110 16:26:30.114296 98229 net.cpp:434] loss_cls <- fc8_new
I0110 16:26:30.114301 98229 net.cpp:434] loss_cls <- labels
I0110 16:26:30.114306 98229 net.cpp:408] loss_cls -> loss_cls
…
