…
I1217 16:44:19.484252 28040 upgrade_proto.cpp:69] Successfully upgraded file specified using deprecated input fields.
W1217 16:44:19.484261 28040 upgrade_proto.cpp:71] Note that future Caffe releases will only support input layers and not input fields.
I1217 16:44:19.484874 28040 net.cpp:58] Initializing net from parameters: 
name: "VGG16_SemanticSegmentation_MLP"
state {
  phase: TRAIN
}
layer {
  name: "input"
  type: "Input"
  top: "data"
  top: "pixels"
  top: "labels"
  input_param {
    shape {
      dim: 1
      dim: 3
      dim: 224
      dim: 224
    }
    shape {
      dim: 50176
      dim: 3
    }
    shape {
      dim: 50176
      dim: 1
    }
  }
}
layer {
  name: "conv1_1"
  type: "Convolution"
  bottom: "data"
  top: "conv1_1"
  param {
    lr_mult: 1
    decay_mult: 1
  }
  param {
    lr_mult: 2
    decay_mult: 0
  }
  convolution_param {
    num_output: 64
    pad: 1
    kernel_size: 3
  }
}
layer {
  name: "relu1_1"
  type: "ReLU"
  bottom: "conv1_1"
  top: "conv1_1"
}
layer {
  name: "conv1_2"
  type: "Convolution"
  bottom: "conv1_1"
  top: "conv1_2"
  param {
    lr_mult: 1
    decay_mult: 1
  }
  param {
    lr_mult: 2
    decay_mult: 0
  }
  convolution_param {
    num_output: 64
    pad: 1
    kernel_size: 3
  }
}
layer {
  name: "relu1_2"
  type: "ReLU"
  bottom: "conv1_2"
  top: "conv1_2"
}
layer {
  name: "pool1"
  type: "Pooling"
  bottom: "conv1_2"
  top: "pool1"
  pooling_param {
    pool: MAX
    kernel_size: 2
    stride: 2
  }
}
layer {
  name: "conv2_1"
  type: "Convolution"
  bottom: "pool1"
  top: "conv2_1"
  param {
    lr_mult: 1
    decay_mult: 1
  }
  param {
    lr_mult: 2
    decay_mult: 0
  }
  convolution_param {
    num_output: 128
    pad: 1
    kernel_size: 3
  }
}
layer {
  name: "relu2_1"
  type: "ReLU"
  bottom: "conv2_1"
  top: "conv2_1"
}
layer {
  name: "conv2_2"
  type: "Convolution"
  bottom: "conv2_1"
  top: "conv2_2"
  param {
    lr_mult: 1
    decay_mult: 1
  }
  param {
    lr_mult: 2
    decay_mult: 0
  }
  convolution_param {
    num_output: 128
    pad: 1
    kernel_size: 3
  }
}
layer {
  name: "relu2_2"
  type: "ReLU"
  bottom: "conv2_2"
  top: "conv2_2"
}
layer {
  name: "pool2"
  type: "Pooling"
  bottom: "conv2_2"
  top: "pool2"
  pooling_param {
    pool: MAX
    kernel_size: 2
    stride: 2
  }
}
layer {
  name: "conv3_1"
  type: "Convolution"
  bottom: "pool2"
  top: "conv3_1"
  param {
    lr_mult: 1
    decay_mult: 1
  }
  param {
    lr_mult: 2
    decay_mult: 0
  }
  convolution_param {
    num_output: 256
    pad: 1
    kernel_size: 3
  }
}
layer {
  name: "relu3_1"
  type: "ReLU"
  bottom: "conv3_1"
  top: "conv3_1"
}
layer {
  name: "conv3_2"
  type: "Convolution"
  bottom: "conv3_1"
  top: "conv3_2"
  param {
    lr_mult: 1
    decay_mult: 1
  }
  param {
    lr_mult: 2
    decay_mult: 0
  }
  convolution_param {
    num_output: 256
    pad: 1
    kernel_size: 3
  }
}
layer {
  name: "relu3_2"
  type: "ReLU"
  bottom: "conv3_2"
  top: "conv3_2"
}
layer {
  name: "conv3_3"
  type: "Convolution"
  bottom: "conv3_2"
  top: "conv3_3"
  param {
    lr_mult: 1
    decay_mult: 1
  }
  param {
    lr_mult: 2
    decay_mult: 0
  }
  convolution_param {
    num_output: 256
    pad: 1
    kernel_size: 3
  }
}
layer {
  name: "relu3_3"
  type: "ReLU"
  bottom: "conv3_3"
  top: "conv3_3"
}
layer {
  name: "pool3"
  type: "Pooling"
  bottom: "conv3_3"
  top: "pool3"
  pooling_param {
    pool: MAX
    kernel_size: 2
    stride: 2
  }
}
layer {
  name: "conv4_1"
  type: "Convolution"
  bottom: "pool3"
  top: "conv4_1"
  param {
    lr_mult: 1
    decay_mult: 1
  }
  param {
    lr_mult: 2
    decay_mult: 0
  }
  convolution_param {
    num_output: 512
    pad: 1
    kernel_size: 3
  }
}
layer {
  name: "relu4_1"
  type: "ReLU"
  bottom: "conv4_1"
  top: "conv4_1"
}
layer {
  name: "conv4_2"
  type: "Convolution"
  bottom: "conv4_1"
  top: "conv4_2"
  param {
    lr_mult: 1
    decay_mult: 1
  }
  param {
    lr_mult: 2
    decay_mult: 0
  }
  convolution_param {
    num_output: 512
    pad: 1
    kernel_size: 3
  }
}
layer {
  name: "relu4_2"
  type: "ReLU"
  bottom: "conv4_2"
  top: "conv4_2"
}
layer {
  name: "conv4_3"
  type: "Convolution"
  bottom: "conv4_2"
  top: "conv4_3"
  param {
    lr_mult: 1
    decay_mult: 1
  }
  param {
    lr_mult: 2
    decay_mult: 0
  }
  convolution_param {
    num_output: 512
    pad: 1
    kernel_size: 3
  }
}
layer {
  name: "relu4_3"
  type: "ReLU"
  bottom: "conv4_3"
  top: "conv4_3"
}
layer {
  name: "pool4"
  type: "Pooling"
  bottom: "conv4_3"
  top: "pool4"
  pooling_param {
    pool: MAX
    kernel_size: 2
    stride: 2
  }
}
layer {
  name: "conv5_1"
  type: "Convolution"
  bottom: "pool4"
  top: "conv5_1"
  param {
    lr_mult: 1
    decay_mult: 1
  }
  param {
    lr_mult: 2
    decay_mult: 0
  }
  convolution_param {
    num_output: 512
    pad: 1
    kernel_size: 3
  }
}
layer {
  name: "relu5_1"
  type: "ReLU"
  bottom: "conv5_1"
  top: "conv5_1"
}
layer {
  name: "conv5_2"
  type: "Convolution"
  bottom: "conv5_1"
  top: "conv5_2"
  param {
    lr_mult: 1
    decay_mult: 1
  }
  param {
    lr_mult: 2
    decay_mult: 0
  }
  convolution_param {
    num_output: 512
    pad: 1
    kernel_size: 3
  }
}
layer {
  name: "relu5_2"
  type: "ReLU"
  bottom: "conv5_2"
  top: "conv5_2"
}
layer {
  name: "conv5_3"
  type: "Convolution"
  bottom: "conv5_2"
  top: "conv5_3"
  param {
    lr_mult: 1
    decay_mult: 1
  }
  param {
    lr_mult: 2
    decay_mult: 0
  }
  convolution_param {
    num_output: 512
    pad: 1
    kernel_size: 3
  }
}
layer {
  name: "relu5_3"
  type: "ReLU"
  bottom: "conv5_3"
  top: "conv5_3"
}
layer {
  name: "pool5"
  type: "Pooling"
  bottom: "conv5_3"
  top: "pool5"
  pooling_param {
    pool: MAX
    kernel_size: 2
    stride: 2
  }
}
layer {
  name: "fc6_conv"
  type: "Convolution"
  bottom: "pool5"
  top: "fc6_conv"
  convolution_param {
    num_output: 4096
    kernel_size: 7
  }
}
layer {
  name: "relu6"
  type: "ReLU"
  bottom: "fc6_conv"
  top: "fc6_conv"
}
layer {
  name: "drop6"
  type: "Dropout"
  bottom: "fc6_conv"
  top: "fc6_conv"
  dropout_param {
    dropout_ratio: 0.5
  }
}
layer {
  name: "fc7_conv"
  type: "Convolution"
  bottom: "fc6_conv"
  top: "fc7_conv"
  convolution_param {
    num_output: 4096
    kernel_size: 1
  }
}
layer {
  name: "relu7"
  type: "ReLU"
  bottom: "fc7_conv"
  top: "fc7_conv"
}
layer {
  name: "drop7"
  type: "Dropout"
  bottom: "fc7_conv"
  top: "fc7_conv"
  dropout_param {
    dropout_ratio: 0.5
  }
}
layer {
  name: "rand_concat"
  type: "RandBI"
  bottom: "conv1_2"
  bottom: "conv2_2"
  bottom: "conv3_3"
  bottom: "conv4_3"
  bottom: "conv5_3"
  bottom: "fc7_conv"
  bottom: "pixels"
  top: "fc5"
  rand_comp_param {
    compression_rate: 1
    compression_rate: 2
    compression_rate: 4
    compression_rate: 8
    compression_rate: 16
    compression_rate: 224
    pad: true
  }
}
layer {
  name: "fc6_new"
  type: "InnerProduct"
  bottom: "fc5"
  top: "fc6_new"
  param {
    lr_mult: 1
    decay_mult: 1
  }
  param {
    lr_mult: 2
    decay_mult: 0
  }
  inner_product_param {
    num_output: 4096
    weight_filler {
      type: "gaussian"
      std: 0.001
    }
    bias_filler {
      type: "constant"
      value: 0
    }
  }
}
layer {
  name: "relu6_new"
  type: "ReLU"
  bottom: "fc6_new"
  top: "fc6_new"
}
layer {
  name: "drop6_new"
  type: "Dropout"
  bottom: "fc6_new"
  top: "fc6_new"
  dropout_param {
    dropout_ratio: 0.5
  }
}
layer {
  name: "fc7_new"
  type: "InnerProduct"
  bottom: "fc6_new"
  top: "fc7_new"
  param {
    lr_mult: 1
    decay_mult: 1
  }
  param {
    lr_mult: 2
    decay_mult: 0
  }
  inner_product_param {
    num_output: 4096
    weight_filler {
      type: "gaussian"
      std: 0.001
    }
    bias_filler {
      type: "constant"
      value: 0
    }
  }
}
layer {
  name: "relu7_new"
  type: "ReLU"
  bottom: "fc7_new"
  top: "fc7_new"
}
layer {
  name: "drop7_new"
  type: "Dropout"
  bottom: "fc7_new"
  top: "fc7_new"
  dropout_param {
    dropout_ratio: 0.5
  }
}
layer {
  name: "cls_score_new"
  type: "InnerProduct"
  bottom: "fc7_new"
  top: "fc8_new"
  param {
    lr_mult: 1
    decay_mult: 1
  }
  param {
    lr_mult: 2
    decay_mult: 0
  }
  inner_product_param {
    num_output: 3
    weight_filler {
      type: "gaussian"
      std: 0.001
    }
    bias_filler {
      type: "constant"
      value: 0
    }
  }
}
layer {
  name: "loss_cls"
  type: "SoftmaxWithLoss"
  bottom: "fc8_new"
  bottom: "labels"
  top: "loss_cls"
}
I1217 16:44:19.485236 28040 layer_factory.hpp:77] Creating layer input
I1217 16:44:19.485260 28040 net.cpp:100] Creating Layer input
I1217 16:44:19.485271 28040 net.cpp:408] input -> data
I1217 16:44:19.485299 28040 net.cpp:408] input -> pixels
I1217 16:44:19.485317 28040 net.cpp:408] input -> labels
I1217 16:44:19.514755 28040 net.cpp:150] Setting up input
I1217 16:44:19.514786 28040 net.cpp:157] Top shape: 1 3 224 224 (150528)
I1217 16:44:19.514796 28040 net.cpp:157] Top shape: 50176 3 (150528)
I1217 16:44:19.514806 28040 net.cpp:157] Top shape: 50176 1 (50176)
I1217 16:44:19.514811 28040 net.cpp:165] Memory required for data: 1404928
I1217 16:44:19.514819 28040 layer_factory.hpp:77] Creating layer conv1_1
I1217 16:44:19.514837 28040 net.cpp:100] Creating Layer conv1_1
I1217 16:44:19.514847 28040 net.cpp:434] conv1_1 <- data
I1217 16:44:19.514858 28040 net.cpp:408] conv1_1 -> conv1_1
I1217 16:44:19.518792 28040 net.cpp:150] Setting up conv1_1
I1217 16:44:19.518818 28040 net.cpp:157] Top shape: 1 64 224 224 (3211264)
I1217 16:44:19.518826 28040 net.cpp:165] Memory required for data: 14249984
I1217 16:44:19.518846 28040 layer_factory.hpp:77] Creating layer relu1_1
I1217 16:44:19.518858 28040 net.cpp:100] Creating Layer relu1_1
I1217 16:44:19.518867 28040 net.cpp:434] relu1_1 <- conv1_1
I1217 16:44:19.518877 28040 net.cpp:395] relu1_1 -> conv1_1 (in-place)
I1217 16:44:19.518888 28040 net.cpp:150] Setting up relu1_1
I1217 16:44:19.518898 28040 net.cpp:157] Top shape: 1 64 224 224 (3211264)
I1217 16:44:19.518903 28040 net.cpp:165] Memory required for data: 27095040
I1217 16:44:19.518911 28040 layer_factory.hpp:77] Creating layer conv1_2
I1217 16:44:19.518924 28040 net.cpp:100] Creating Layer conv1_2
I1217 16:44:19.518931 28040 net.cpp:434] conv1_2 <- conv1_1
I1217 16:44:19.518942 28040 net.cpp:408] conv1_2 -> conv1_2
I1217 16:44:19.519567 28040 net.cpp:150] Setting up conv1_2
I1217 16:44:19.519582 28040 net.cpp:157] Top shape: 1 64 224 224 (3211264)
I1217 16:44:19.519587 28040 net.cpp:165] Memory required for data: 39940096
I1217 16:44:19.519600 28040 layer_factory.hpp:77] Creating layer relu1_2
I1217 16:44:19.519613 28040 net.cpp:100] Creating Layer relu1_2
I1217 16:44:19.519619 28040 net.cpp:434] relu1_2 <- conv1_2
I1217 16:44:19.519629 28040 net.cpp:395] relu1_2 -> conv1_2 (in-place)
I1217 16:44:19.519639 28040 net.cpp:150] Setting up relu1_2
I1217 16:44:19.519647 28040 net.cpp:157] Top shape: 1 64 224 224 (3211264)
I1217 16:44:19.519654 28040 net.cpp:165] Memory required for data: 52785152
I1217 16:44:19.519660 28040 layer_factory.hpp:77] Creating layer conv1_2_relu1_2_0_split
I1217 16:44:19.519671 28040 net.cpp:100] Creating Layer conv1_2_relu1_2_0_split
I1217 16:44:19.519687 28040 net.cpp:434] conv1_2_relu1_2_0_split <- conv1_2
I1217 16:44:19.519697 28040 net.cpp:408] conv1_2_relu1_2_0_split -> conv1_2_relu1_2_0_split_0
I1217 16:44:19.519708 28040 net.cpp:408] conv1_2_relu1_2_0_split -> conv1_2_relu1_2_0_split_1
I1217 16:44:19.519801 28040 net.cpp:150] Setting up conv1_2_relu1_2_0_split
I1217 16:44:19.519815 28040 net.cpp:157] Top shape: 1 64 224 224 (3211264)
I1217 16:44:19.519824 28040 net.cpp:157] Top shape: 1 64 224 224 (3211264)
I1217 16:44:19.519830 28040 net.cpp:165] Memory required for data: 78475264
I1217 16:44:19.519837 28040 layer_factory.hpp:77] Creating layer pool1
I1217 16:44:19.519850 28040 net.cpp:100] Creating Layer pool1
I1217 16:44:19.519858 28040 net.cpp:434] pool1 <- conv1_2_relu1_2_0_split_0
I1217 16:44:19.519867 28040 net.cpp:408] pool1 -> pool1
I1217 16:44:19.519942 28040 net.cpp:150] Setting up pool1
I1217 16:44:19.519954 28040 net.cpp:157] Top shape: 1 64 112 112 (802816)
I1217 16:44:19.519960 28040 net.cpp:165] Memory required for data: 81686528
I1217 16:44:19.519968 28040 layer_factory.hpp:77] Creating layer conv2_1
I1217 16:44:19.519980 28040 net.cpp:100] Creating Layer conv2_1
I1217 16:44:19.519989 28040 net.cpp:434] conv2_1 <- pool1
I1217 16:44:19.519999 28040 net.cpp:408] conv2_1 -> conv2_1
I1217 16:44:19.523952 28040 net.cpp:150] Setting up conv2_1
I1217 16:44:19.523975 28040 net.cpp:157] Top shape: 1 128 112 112 (1605632)
I1217 16:44:19.523983 28040 net.cpp:165] Memory required for data: 88109056
I1217 16:44:19.523999 28040 layer_factory.hpp:77] Creating layer relu2_1
I1217 16:44:19.524013 28040 net.cpp:100] Creating Layer relu2_1
I1217 16:44:19.524020 28040 net.cpp:434] relu2_1 <- conv2_1
I1217 16:44:19.524030 28040 net.cpp:395] relu2_1 -> conv2_1 (in-place)
I1217 16:44:19.524042 28040 net.cpp:150] Setting up relu2_1
I1217 16:44:19.524051 28040 net.cpp:157] Top shape: 1 128 112 112 (1605632)
I1217 16:44:19.524058 28040 net.cpp:165] Memory required for data: 94531584
I1217 16:44:19.524065 28040 layer_factory.hpp:77] Creating layer conv2_2
I1217 16:44:19.524077 28040 net.cpp:100] Creating Layer conv2_2
I1217 16:44:19.524096 28040 net.cpp:434] conv2_2 <- conv2_1
I1217 16:44:19.524107 28040 net.cpp:408] conv2_2 -> conv2_2
I1217 16:44:19.524771 28040 net.cpp:150] Setting up conv2_2
I1217 16:44:19.524785 28040 net.cpp:157] Top shape: 1 128 112 112 (1605632)
I1217 16:44:19.524791 28040 net.cpp:165] Memory required for data: 100954112
I1217 16:44:19.524801 28040 layer_factory.hpp:77] Creating layer relu2_2
I1217 16:44:19.524811 28040 net.cpp:100] Creating Layer relu2_2
I1217 16:44:19.524817 28040 net.cpp:434] relu2_2 <- conv2_2
I1217 16:44:19.524825 28040 net.cpp:395] relu2_2 -> conv2_2 (in-place)
I1217 16:44:19.524834 28040 net.cpp:150] Setting up relu2_2
I1217 16:44:19.524843 28040 net.cpp:157] Top shape: 1 128 112 112 (1605632)
I1217 16:44:19.524849 28040 net.cpp:165] Memory required for data: 107376640
I1217 16:44:19.524855 28040 layer_factory.hpp:77] Creating layer conv2_2_relu2_2_0_split
I1217 16:44:19.524865 28040 net.cpp:100] Creating Layer conv2_2_relu2_2_0_split
I1217 16:44:19.524873 28040 net.cpp:434] conv2_2_relu2_2_0_split <- conv2_2
I1217 16:44:19.524880 28040 net.cpp:408] conv2_2_relu2_2_0_split -> conv2_2_relu2_2_0_split_0
I1217 16:44:19.524891 28040 net.cpp:408] conv2_2_relu2_2_0_split -> conv2_2_relu2_2_0_split_1
I1217 16:44:19.524963 28040 net.cpp:150] Setting up conv2_2_relu2_2_0_split
I1217 16:44:19.524974 28040 net.cpp:157] Top shape: 1 128 112 112 (1605632)
I1217 16:44:19.524982 28040 net.cpp:157] Top shape: 1 128 112 112 (1605632)
I1217 16:44:19.524988 28040 net.cpp:165] Memory required for data: 120221696
I1217 16:44:19.524994 28040 layer_factory.hpp:77] Creating layer pool2
I1217 16:44:19.525004 28040 net.cpp:100] Creating Layer pool2
I1217 16:44:19.525012 28040 net.cpp:434] pool2 <- conv2_2_relu2_2_0_split_0
I1217 16:44:19.525020 28040 net.cpp:408] pool2 -> pool2
I1217 16:44:19.525092 28040 net.cpp:150] Setting up pool2
I1217 16:44:19.525104 28040 net.cpp:157] Top shape: 1 128 56 56 (401408)
I1217 16:44:19.525117 28040 net.cpp:165] Memory required for data: 121827328
I1217 16:44:19.525123 28040 layer_factory.hpp:77] Creating layer conv3_1
I1217 16:44:19.525136 28040 net.cpp:100] Creating Layer conv3_1
I1217 16:44:19.525144 28040 net.cpp:434] conv3_1 <- pool2
I1217 16:44:19.525154 28040 net.cpp:408] conv3_1 -> conv3_1
I1217 16:44:19.525948 28040 net.cpp:150] Setting up conv3_1
I1217 16:44:19.525960 28040 net.cpp:157] Top shape: 1 256 56 56 (802816)
I1217 16:44:19.525967 28040 net.cpp:165] Memory required for data: 125038592
I1217 16:44:19.525981 28040 layer_factory.hpp:77] Creating layer relu3_1
I1217 16:44:19.525990 28040 net.cpp:100] Creating Layer relu3_1
I1217 16:44:19.525997 28040 net.cpp:434] relu3_1 <- conv3_1
I1217 16:44:19.526006 28040 net.cpp:395] relu3_1 -> conv3_1 (in-place)
I1217 16:44:19.526015 28040 net.cpp:150] Setting up relu3_1
I1217 16:44:19.526023 28040 net.cpp:157] Top shape: 1 256 56 56 (802816)
I1217 16:44:19.526029 28040 net.cpp:165] Memory required for data: 128249856
I1217 16:44:19.526036 28040 layer_factory.hpp:77] Creating layer conv3_2
I1217 16:44:19.526047 28040 net.cpp:100] Creating Layer conv3_2
I1217 16:44:19.526054 28040 net.cpp:434] conv3_2 <- conv3_1
I1217 16:44:19.526063 28040 net.cpp:408] conv3_2 -> conv3_2
I1217 16:44:19.528939 28040 net.cpp:150] Setting up conv3_2
I1217 16:44:19.528960 28040 net.cpp:157] Top shape: 1 256 56 56 (802816)
I1217 16:44:19.528967 28040 net.cpp:165] Memory required for data: 131461120
I1217 16:44:19.528978 28040 layer_factory.hpp:77] Creating layer relu3_2
I1217 16:44:19.528992 28040 net.cpp:100] Creating Layer relu3_2
I1217 16:44:19.529000 28040 net.cpp:434] relu3_2 <- conv3_2
I1217 16:44:19.529009 28040 net.cpp:395] relu3_2 -> conv3_2 (in-place)
I1217 16:44:19.529021 28040 net.cpp:150] Setting up relu3_2
I1217 16:44:19.529028 28040 net.cpp:157] Top shape: 1 256 56 56 (802816)
I1217 16:44:19.529034 28040 net.cpp:165] Memory required for data: 134672384
I1217 16:44:19.529042 28040 layer_factory.hpp:77] Creating layer conv3_3
I1217 16:44:19.529053 28040 net.cpp:100] Creating Layer conv3_3
I1217 16:44:19.529060 28040 net.cpp:434] conv3_3 <- conv3_2
I1217 16:44:19.529070 28040 net.cpp:408] conv3_3 -> conv3_3
I1217 16:44:19.531967 28040 net.cpp:150] Setting up conv3_3
I1217 16:44:19.531991 28040 net.cpp:157] Top shape: 1 256 56 56 (802816)
I1217 16:44:19.531998 28040 net.cpp:165] Memory required for data: 137883648
I1217 16:44:19.532011 28040 layer_factory.hpp:77] Creating layer relu3_3
I1217 16:44:19.532021 28040 net.cpp:100] Creating Layer relu3_3
I1217 16:44:19.532028 28040 net.cpp:434] relu3_3 <- conv3_3
I1217 16:44:19.532038 28040 net.cpp:395] relu3_3 -> conv3_3 (in-place)
I1217 16:44:19.532049 28040 net.cpp:150] Setting up relu3_3
I1217 16:44:19.532058 28040 net.cpp:157] Top shape: 1 256 56 56 (802816)
I1217 16:44:19.532063 28040 net.cpp:165] Memory required for data: 141094912
I1217 16:44:19.532070 28040 layer_factory.hpp:77] Creating layer conv3_3_relu3_3_0_split
I1217 16:44:19.532080 28040 net.cpp:100] Creating Layer conv3_3_relu3_3_0_split
I1217 16:44:19.532086 28040 net.cpp:434] conv3_3_relu3_3_0_split <- conv3_3
I1217 16:44:19.532095 28040 net.cpp:408] conv3_3_relu3_3_0_split -> conv3_3_relu3_3_0_split_0
I1217 16:44:19.532111 28040 net.cpp:408] conv3_3_relu3_3_0_split -> conv3_3_relu3_3_0_split_1
I1217 16:44:19.532191 28040 net.cpp:150] Setting up conv3_3_relu3_3_0_split
I1217 16:44:19.532202 28040 net.cpp:157] Top shape: 1 256 56 56 (802816)
I1217 16:44:19.532209 28040 net.cpp:157] Top shape: 1 256 56 56 (802816)
I1217 16:44:19.532217 28040 net.cpp:165] Memory required for data: 147517440
I1217 16:44:19.532222 28040 layer_factory.hpp:77] Creating layer pool3
I1217 16:44:19.532232 28040 net.cpp:100] Creating Layer pool3
I1217 16:44:19.532239 28040 net.cpp:434] pool3 <- conv3_3_relu3_3_0_split_0
I1217 16:44:19.532248 28040 net.cpp:408] pool3 -> pool3
I1217 16:44:19.532317 28040 net.cpp:150] Setting up pool3
I1217 16:44:19.532327 28040 net.cpp:157] Top shape: 1 256 28 28 (200704)
I1217 16:44:19.532335 28040 net.cpp:165] Memory required for data: 148320256
I1217 16:44:19.532348 28040 layer_factory.hpp:77] Creating layer conv4_1
I1217 16:44:19.532361 28040 net.cpp:100] Creating Layer conv4_1
I1217 16:44:19.532368 28040 net.cpp:434] conv4_1 <- pool3
I1217 16:44:19.532378 28040 net.cpp:408] conv4_1 -> conv4_1
I1217 16:44:19.538600 28040 net.cpp:150] Setting up conv4_1
I1217 16:44:19.538624 28040 net.cpp:157] Top shape: 1 512 28 28 (401408)
I1217 16:44:19.538630 28040 net.cpp:165] Memory required for data: 149925888
I1217 16:44:19.538640 28040 layer_factory.hpp:77] Creating layer relu4_1
I1217 16:44:19.538651 28040 net.cpp:100] Creating Layer relu4_1
I1217 16:44:19.538658 28040 net.cpp:434] relu4_1 <- conv4_1
I1217 16:44:19.538668 28040 net.cpp:395] relu4_1 -> conv4_1 (in-place)
I1217 16:44:19.538678 28040 net.cpp:150] Setting up relu4_1
I1217 16:44:19.538687 28040 net.cpp:157] Top shape: 1 512 28 28 (401408)
I1217 16:44:19.538693 28040 net.cpp:165] Memory required for data: 151531520
I1217 16:44:19.538699 28040 layer_factory.hpp:77] Creating layer conv4_2
I1217 16:44:19.538710 28040 net.cpp:100] Creating Layer conv4_2
I1217 16:44:19.538718 28040 net.cpp:434] conv4_2 <- conv4_1
I1217 16:44:19.538727 28040 net.cpp:408] conv4_2 -> conv4_2
I1217 16:44:19.546905 28040 net.cpp:150] Setting up conv4_2
I1217 16:44:19.546931 28040 net.cpp:157] Top shape: 1 512 28 28 (401408)
I1217 16:44:19.546938 28040 net.cpp:165] Memory required for data: 153137152
I1217 16:44:19.546954 28040 layer_factory.hpp:77] Creating layer relu4_2
I1217 16:44:19.546967 28040 net.cpp:100] Creating Layer relu4_2
I1217 16:44:19.546974 28040 net.cpp:434] relu4_2 <- conv4_2
I1217 16:44:19.546984 28040 net.cpp:395] relu4_2 -> conv4_2 (in-place)
I1217 16:44:19.546994 28040 net.cpp:150] Setting up relu4_2
I1217 16:44:19.547003 28040 net.cpp:157] Top shape: 1 512 28 28 (401408)
I1217 16:44:19.547008 28040 net.cpp:165] Memory required for data: 154742784
I1217 16:44:19.547015 28040 layer_factory.hpp:77] Creating layer conv4_3
I1217 16:44:19.547026 28040 net.cpp:100] Creating Layer conv4_3
I1217 16:44:19.547034 28040 net.cpp:434] conv4_3 <- conv4_2
I1217 16:44:19.547044 28040 net.cpp:408] conv4_3 -> conv4_3
I1217 16:44:19.554970 28040 net.cpp:150] Setting up conv4_3
I1217 16:44:19.554996 28040 net.cpp:157] Top shape: 1 512 28 28 (401408)
I1217 16:44:19.555003 28040 net.cpp:165] Memory required for data: 156348416
I1217 16:44:19.555013 28040 layer_factory.hpp:77] Creating layer relu4_3
I1217 16:44:19.555024 28040 net.cpp:100] Creating Layer relu4_3
I1217 16:44:19.555032 28040 net.cpp:434] relu4_3 <- conv4_3
I1217 16:44:19.555042 28040 net.cpp:395] relu4_3 -> conv4_3 (in-place)
I1217 16:44:19.555052 28040 net.cpp:150] Setting up relu4_3
I1217 16:44:19.555060 28040 net.cpp:157] Top shape: 1 512 28 28 (401408)
I1217 16:44:19.555065 28040 net.cpp:165] Memory required for data: 157954048
I1217 16:44:19.555071 28040 layer_factory.hpp:77] Creating layer conv4_3_relu4_3_0_split
I1217 16:44:19.555081 28040 net.cpp:100] Creating Layer conv4_3_relu4_3_0_split
I1217 16:44:19.555088 28040 net.cpp:434] conv4_3_relu4_3_0_split <- conv4_3
I1217 16:44:19.555095 28040 net.cpp:408] conv4_3_relu4_3_0_split -> conv4_3_relu4_3_0_split_0
I1217 16:44:19.555105 28040 net.cpp:408] conv4_3_relu4_3_0_split -> conv4_3_relu4_3_0_split_1
I1217 16:44:19.555178 28040 net.cpp:150] Setting up conv4_3_relu4_3_0_split
I1217 16:44:19.555188 28040 net.cpp:157] Top shape: 1 512 28 28 (401408)
I1217 16:44:19.555197 28040 net.cpp:157] Top shape: 1 512 28 28 (401408)
I1217 16:44:19.555202 28040 net.cpp:165] Memory required for data: 161165312
I1217 16:44:19.555207 28040 layer_factory.hpp:77] Creating layer pool4
I1217 16:44:19.555218 28040 net.cpp:100] Creating Layer pool4
I1217 16:44:19.555224 28040 net.cpp:434] pool4 <- conv4_3_relu4_3_0_split_0
I1217 16:44:19.555233 28040 net.cpp:408] pool4 -> pool4
I1217 16:44:19.555299 28040 net.cpp:150] Setting up pool4
I1217 16:44:19.555310 28040 net.cpp:157] Top shape: 1 512 14 14 (100352)
I1217 16:44:19.555315 28040 net.cpp:165] Memory required for data: 161566720
I1217 16:44:19.555320 28040 layer_factory.hpp:77] Creating layer conv5_1
I1217 16:44:19.555346 28040 net.cpp:100] Creating Layer conv5_1
I1217 16:44:19.555354 28040 net.cpp:434] conv5_1 <- pool4
I1217 16:44:19.555363 28040 net.cpp:408] conv5_1 -> conv5_1
I1217 16:44:19.563099 28040 net.cpp:150] Setting up conv5_1
I1217 16:44:19.563123 28040 net.cpp:157] Top shape: 1 512 14 14 (100352)
I1217 16:44:19.563130 28040 net.cpp:165] Memory required for data: 161968128
I1217 16:44:19.563140 28040 layer_factory.hpp:77] Creating layer relu5_1
I1217 16:44:19.563150 28040 net.cpp:100] Creating Layer relu5_1
I1217 16:44:19.563156 28040 net.cpp:434] relu5_1 <- conv5_1
I1217 16:44:19.563165 28040 net.cpp:395] relu5_1 -> conv5_1 (in-place)
I1217 16:44:19.563175 28040 net.cpp:150] Setting up relu5_1
I1217 16:44:19.563182 28040 net.cpp:157] Top shape: 1 512 14 14 (100352)
I1217 16:44:19.563189 28040 net.cpp:165] Memory required for data: 162369536
I1217 16:44:19.563194 28040 layer_factory.hpp:77] Creating layer conv5_2
I1217 16:44:19.563205 28040 net.cpp:100] Creating Layer conv5_2
I1217 16:44:19.563210 28040 net.cpp:434] conv5_2 <- conv5_1
I1217 16:44:19.563220 28040 net.cpp:408] conv5_2 -> conv5_2
I1217 16:44:19.570824 28040 net.cpp:150] Setting up conv5_2
I1217 16:44:19.570849 28040 net.cpp:157] Top shape: 1 512 14 14 (100352)
I1217 16:44:19.570857 28040 net.cpp:165] Memory required for data: 162770944
I1217 16:44:19.570866 28040 layer_factory.hpp:77] Creating layer relu5_2
I1217 16:44:19.570883 28040 net.cpp:100] Creating Layer relu5_2
I1217 16:44:19.570889 28040 net.cpp:434] relu5_2 <- conv5_2
I1217 16:44:19.570897 28040 net.cpp:395] relu5_2 -> conv5_2 (in-place)
I1217 16:44:19.570907 28040 net.cpp:150] Setting up relu5_2
I1217 16:44:19.570914 28040 net.cpp:157] Top shape: 1 512 14 14 (100352)
I1217 16:44:19.570920 28040 net.cpp:165] Memory required for data: 163172352
I1217 16:44:19.570925 28040 layer_factory.hpp:77] Creating layer conv5_3
I1217 16:44:19.570936 28040 net.cpp:100] Creating Layer conv5_3
I1217 16:44:19.570942 28040 net.cpp:434] conv5_3 <- conv5_2
I1217 16:44:19.570951 28040 net.cpp:408] conv5_3 -> conv5_3
I1217 16:44:19.578352 28040 net.cpp:150] Setting up conv5_3
I1217 16:44:19.578375 28040 net.cpp:157] Top shape: 1 512 14 14 (100352)
I1217 16:44:19.578382 28040 net.cpp:165] Memory required for data: 163573760
I1217 16:44:19.578392 28040 layer_factory.hpp:77] Creating layer relu5_3
I1217 16:44:19.578400 28040 net.cpp:100] Creating Layer relu5_3
I1217 16:44:19.578407 28040 net.cpp:434] relu5_3 <- conv5_3
I1217 16:44:19.578415 28040 net.cpp:395] relu5_3 -> conv5_3 (in-place)
I1217 16:44:19.578424 28040 net.cpp:150] Setting up relu5_3
I1217 16:44:19.578431 28040 net.cpp:157] Top shape: 1 512 14 14 (100352)
I1217 16:44:19.578436 28040 net.cpp:165] Memory required for data: 163975168
I1217 16:44:19.578442 28040 layer_factory.hpp:77] Creating layer conv5_3_relu5_3_0_split
I1217 16:44:19.578450 28040 net.cpp:100] Creating Layer conv5_3_relu5_3_0_split
I1217 16:44:19.578455 28040 net.cpp:434] conv5_3_relu5_3_0_split <- conv5_3
I1217 16:44:19.578464 28040 net.cpp:408] conv5_3_relu5_3_0_split -> conv5_3_relu5_3_0_split_0
I1217 16:44:19.578474 28040 net.cpp:408] conv5_3_relu5_3_0_split -> conv5_3_relu5_3_0_split_1
I1217 16:44:19.578544 28040 net.cpp:150] Setting up conv5_3_relu5_3_0_split
I1217 16:44:19.578553 28040 net.cpp:157] Top shape: 1 512 14 14 (100352)
I1217 16:44:19.578560 28040 net.cpp:157] Top shape: 1 512 14 14 (100352)
I1217 16:44:19.578565 28040 net.cpp:165] Memory required for data: 164777984
I1217 16:44:19.578570 28040 layer_factory.hpp:77] Creating layer pool5
I1217 16:44:19.578580 28040 net.cpp:100] Creating Layer pool5
I1217 16:44:19.578586 28040 net.cpp:434] pool5 <- conv5_3_relu5_3_0_split_0
I1217 16:44:19.578595 28040 net.cpp:408] pool5 -> pool5
I1217 16:44:19.578657 28040 net.cpp:150] Setting up pool5
I1217 16:44:19.578666 28040 net.cpp:157] Top shape: 1 512 7 7 (25088)
I1217 16:44:19.578671 28040 net.cpp:165] Memory required for data: 164878336
I1217 16:44:19.578676 28040 layer_factory.hpp:77] Creating layer fc6_conv
I1217 16:44:19.578687 28040 net.cpp:100] Creating Layer fc6_conv
I1217 16:44:19.578701 28040 net.cpp:434] fc6_conv <- pool5
I1217 16:44:19.578711 28040 net.cpp:408] fc6_conv -> fc6_conv
I1217 16:44:19.853583 28040 net.cpp:150] Setting up fc6_conv
I1217 16:44:19.853631 28040 net.cpp:157] Top shape: 1 4096 1 1 (4096)
I1217 16:44:19.853636 28040 net.cpp:165] Memory required for data: 164894720
I1217 16:44:19.853644 28040 layer_factory.hpp:77] Creating layer relu6
I1217 16:44:19.853655 28040 net.cpp:100] Creating Layer relu6
I1217 16:44:19.853660 28040 net.cpp:434] relu6 <- fc6_conv
I1217 16:44:19.853667 28040 net.cpp:395] relu6 -> fc6_conv (in-place)
I1217 16:44:19.853677 28040 net.cpp:150] Setting up relu6
I1217 16:44:19.853682 28040 net.cpp:157] Top shape: 1 4096 1 1 (4096)
I1217 16:44:19.853685 28040 net.cpp:165] Memory required for data: 164911104
I1217 16:44:19.853688 28040 layer_factory.hpp:77] Creating layer drop6
I1217 16:44:19.853696 28040 net.cpp:100] Creating Layer drop6
I1217 16:44:19.853700 28040 net.cpp:434] drop6 <- fc6_conv
I1217 16:44:19.853705 28040 net.cpp:395] drop6 -> fc6_conv (in-place)
I1217 16:44:19.853734 28040 net.cpp:150] Setting up drop6
I1217 16:44:19.853740 28040 net.cpp:157] Top shape: 1 4096 1 1 (4096)
I1217 16:44:19.853744 28040 net.cpp:165] Memory required for data: 164927488
I1217 16:44:19.853747 28040 layer_factory.hpp:77] Creating layer fc7_conv
I1217 16:44:19.853755 28040 net.cpp:100] Creating Layer fc7_conv
I1217 16:44:19.853760 28040 net.cpp:434] fc7_conv <- fc6_conv
I1217 16:44:19.853766 28040 net.cpp:408] fc7_conv -> fc7_conv
I1217 16:44:19.899561 28040 net.cpp:150] Setting up fc7_conv
I1217 16:44:19.899611 28040 net.cpp:157] Top shape: 1 4096 1 1 (4096)
I1217 16:44:19.899616 28040 net.cpp:165] Memory required for data: 164943872
I1217 16:44:19.899626 28040 layer_factory.hpp:77] Creating layer relu7
I1217 16:44:19.899636 28040 net.cpp:100] Creating Layer relu7
I1217 16:44:19.899641 28040 net.cpp:434] relu7 <- fc7_conv
I1217 16:44:19.899648 28040 net.cpp:395] relu7 -> fc7_conv (in-place)
I1217 16:44:19.899657 28040 net.cpp:150] Setting up relu7
I1217 16:44:19.899662 28040 net.cpp:157] Top shape: 1 4096 1 1 (4096)
I1217 16:44:19.899665 28040 net.cpp:165] Memory required for data: 164960256
I1217 16:44:19.899669 28040 layer_factory.hpp:77] Creating layer drop7
I1217 16:44:19.899677 28040 net.cpp:100] Creating Layer drop7
I1217 16:44:19.899680 28040 net.cpp:434] drop7 <- fc7_conv
I1217 16:44:19.899684 28040 net.cpp:395] drop7 -> fc7_conv (in-place)
I1217 16:44:19.899714 28040 net.cpp:150] Setting up drop7
I1217 16:44:19.899721 28040 net.cpp:157] Top shape: 1 4096 1 1 (4096)
I1217 16:44:19.899724 28040 net.cpp:165] Memory required for data: 164976640
I1217 16:44:19.899729 28040 layer_factory.hpp:77] Creating layer rand_concat
I1217 16:44:19.899736 28040 net.cpp:100] Creating Layer rand_concat
I1217 16:44:19.899741 28040 net.cpp:434] rand_concat <- conv1_2_relu1_2_0_split_1
I1217 16:44:19.899746 28040 net.cpp:434] rand_concat <- conv2_2_relu2_2_0_split_1
I1217 16:44:19.899751 28040 net.cpp:434] rand_concat <- conv3_3_relu3_3_0_split_1
I1217 16:44:19.899755 28040 net.cpp:434] rand_concat <- conv4_3_relu4_3_0_split_1
I1217 16:44:19.899760 28040 net.cpp:434] rand_concat <- conv5_3_relu5_3_0_split_1
I1217 16:44:19.899763 28040 net.cpp:434] rand_concat <- fc7_conv
I1217 16:44:19.899767 28040 net.cpp:434] rand_concat <- pixels
I1217 16:44:19.899773 28040 net.cpp:408] rand_concat -> fc5
I1217 16:44:19.899821 28040 net.cpp:150] Setting up rand_concat
I1217 16:44:19.899828 28040 net.cpp:157] Top shape: 50176 5568 (279379968)
I1217 16:44:19.899832 28040 net.cpp:165] Memory required for data: 1282496512
I1217 16:44:19.899835 28040 layer_factory.hpp:77] Creating layer fc6_new
I1217 16:44:19.899843 28040 net.cpp:100] Creating Layer fc6_new
I1217 16:44:19.899848 28040 net.cpp:434] fc6_new <- fc5
I1217 16:44:19.899854 28040 net.cpp:408] fc6_new -> fc6_new
I1217 16:44:20.146277 28040 net.cpp:150] Setting up fc6_new
I1217 16:44:20.146325 28040 net.cpp:157] Top shape: 50176 4096 (205520896)
I1217 16:44:20.146329 28040 net.cpp:165] Memory required for data: 2104580096
I1217 16:44:20.146349 28040 layer_factory.hpp:77] Creating layer relu6_new
I1217 16:44:20.146360 28040 net.cpp:100] Creating Layer relu6_new
I1217 16:44:20.146365 28040 net.cpp:434] relu6_new <- fc6_new
I1217 16:44:20.146373 28040 net.cpp:395] relu6_new -> fc6_new (in-place)
I1217 16:44:20.146383 28040 net.cpp:150] Setting up relu6_new
I1217 16:44:20.146387 28040 net.cpp:157] Top shape: 50176 4096 (205520896)
I1217 16:44:20.146391 28040 net.cpp:165] Memory required for data: 2926663680
I1217 16:44:20.146394 28040 layer_factory.hpp:77] Creating layer drop6_new
I1217 16:44:20.146401 28040 net.cpp:100] Creating Layer drop6_new
I1217 16:44:20.146404 28040 net.cpp:434] drop6_new <- fc6_new
I1217 16:44:20.146409 28040 net.cpp:395] drop6_new -> fc6_new (in-place)
I1217 16:44:20.146441 28040 net.cpp:150] Setting up drop6_new
I1217 16:44:20.146447 28040 net.cpp:157] Top shape: 50176 4096 (205520896)
I1217 16:44:20.146450 28040 net.cpp:165] Memory required for data: 3748747264
I1217 16:44:20.146454 28040 layer_factory.hpp:77] Creating layer fc7_new
I1217 16:44:20.146462 28040 net.cpp:100] Creating Layer fc7_new
I1217 16:44:20.146466 28040 net.cpp:434] fc7_new <- fc6_new
I1217 16:44:20.146472 28040 net.cpp:408] fc7_new -> fc7_new
I1217 16:44:20.328001 28040 net.cpp:150] Setting up fc7_new
I1217 16:44:20.328047 28040 net.cpp:157] Top shape: 50176 4096 (205520896)
I1217 16:44:20.328052 28040 net.cpp:165] Memory required for data: 4570830848
I1217 16:44:20.328068 28040 layer_factory.hpp:77] Creating layer relu7_new
I1217 16:44:20.328079 28040 net.cpp:100] Creating Layer relu7_new
I1217 16:44:20.328084 28040 net.cpp:434] relu7_new <- fc7_new
I1217 16:44:20.328091 28040 net.cpp:395] relu7_new -> fc7_new (in-place)
I1217 16:44:20.328099 28040 net.cpp:150] Setting up relu7_new
I1217 16:44:20.328104 28040 net.cpp:157] Top shape: 50176 4096 (205520896)
I1217 16:44:20.328107 28040 net.cpp:165] Memory required for data: 5392914432
I1217 16:44:20.328110 28040 layer_factory.hpp:77] Creating layer drop7_new
I1217 16:44:20.328117 28040 net.cpp:100] Creating Layer drop7_new
I1217 16:44:20.328121 28040 net.cpp:434] drop7_new <- fc7_new
I1217 16:44:20.328126 28040 net.cpp:395] drop7_new -> fc7_new (in-place)
I1217 16:44:20.328158 28040 net.cpp:150] Setting up drop7_new
I1217 16:44:20.328163 28040 net.cpp:157] Top shape: 50176 4096 (205520896)
I1217 16:44:20.328167 28040 net.cpp:165] Memory required for data: 6214998016
I1217 16:44:20.328171 28040 layer_factory.hpp:77] Creating layer cls_score_new
I1217 16:44:20.328177 28040 net.cpp:100] Creating Layer cls_score_new
I1217 16:44:20.328181 28040 net.cpp:434] cls_score_new <- fc7_new
I1217 16:44:20.328187 28040 net.cpp:408] cls_score_new -> fc8_new
I1217 16:44:20.328503 28040 net.cpp:150] Setting up cls_score_new
I1217 16:44:20.328510 28040 net.cpp:157] Top shape: 50176 3 (150528)
I1217 16:44:20.328514 28040 net.cpp:165] Memory required for data: 6215600128
I1217 16:44:20.328521 28040 layer_factory.hpp:77] Creating layer loss_cls
I1217 16:44:20.328528 28040 net.cpp:100] Creating Layer loss_cls
I1217 16:44:20.328532 28040 net.cpp:434] loss_cls <- fc8_new
I1217 16:44:20.328537 28040 net.cpp:434] loss_cls <- labels
I1217 16:44:20.328542 28040 net.cpp:408] loss_cls -> loss_cls
…
